tut1-model.pt (torch, 479080 bytes, 4 tensors)

input_layer.weight f4 [150, 784]
00000000: 13a4 8f3d 11da 143d 333d 333d 5983 133d
00000010: d947 6b3d 88cb cb3c 7595 8d3d 7548 703d
00000020: 1e7d a13d 3a6f f33d ca68 c53d 3a48 d23d
00000030: b2b0 183d d749 153c 518f 093d f35f 153d
00000040: 0b4c d53d 5b4b 003e fac6 ee3d 74af 2f3e
00000050: 7779 e03d 02ad 803d 6f92 a13d 9871 343d
00000060: 7d61 0a3d 8da5 f53c 94b8 2c3d 0814 353d
00000070: d522 9e3d 5184 4b3d 0d6c 743d ade6 a23d
00000080: 9bb5 a53d 73a9 933c cc06 683c f907 943d
00000090: a356 483d 7414 9f3d 572a a93d c3a0 463d
000000a0: 232e 8c3d 723a 9a3c 4806 ac3d bddd 0f3e
000000b0: 6ce9 1c3e e1a8 053e 77c6 d93d caba 173e
000000c0: f73b e63d 42e1 a53d 4ef9 c43d a663 073d
000000d0: 81db 953d b368 5e3d 7dd0 8e3c 6ef1 8d3d
000000e0: f63e 3f3c 0708 983d b715 6a3d 5158 003d
000000f0: b2f5 d03d 694e 4e3d 8fd7 af3d 6c5a a03d
00000100: 04cb 483d 1f3d b23c 6e01 493d c711 a73d
00000110: 73e3 833d c217 373d e199 debc 4c5d a03c
00000120: 22ec 733d 1ff9 ab3d 987d 063e 55b3 853b
00000130: 158e 0e3d 34df 263d 3129 113d ce24 913d
00000140: 6e9b adbb 20f8 a6bc 9cb8 823a 716f 513d
00000150: 832d 073c a4d9 113d 7628 fc3c 435b 1e3d
00000160: 1ed1 633d 7d75 7b3d 7554 483d 7ad3 1d3d
00000170: c6bd 0abd ac39 c5bc 83e2 c8bd 8f1b 84bd
00000180: 5858 71bd 3e32 0bbd d4d2 3abd f3ed 57bd
00000190: 020e 6c3c 39f2 e23c e09b f5bb befe 023d
000001a0: d8b5 3d3d 42ec 3bbd a2e5 91bd c13a 94bc
000001b0: da80 17bc 4ef3 79bc fbc7 273d 17b1 563d
000001c0: f74f bc3c b3ca a03d 300e d23d 0c7d 7a3d
000001d0: a711 ea3c 9463 833d 4493 9c3d 88ff 953d
000001e0: 4347 bebc 75a5 c5bd a61a b5bd 9a48 1dbe
000001f0: f2ef b9bd 87fd 51bd b988 923c 1193 2dbd
00000200: e66c 87bc ca5a b4bc 2606 03bd cab2 90bd
00000210: 5bce 48bd a531 33bd b488 223c 5cc1 8e3d
00000220: 0e2a dbbc 57d8 6c3d f490 283d 24f8 973d
00000230: 2dfc 243d 3c1c 153d bb85 af3d 3240 b13d
00000240: c05e d03d 4adf ad3d cd80 8f3d de92 943d
00000250: 5614 843d f113 0b3d dfd0 663d 0af6 a0bd
00000260: d65c 3f3c 5557 39bc 35c7 523d 01ba 7b3d
00000270: 06f6 ab3c 064b 78bd ead0 89bd e001 a6bd
00000280: 82b6 26bd fc3f a7bd 44b0 843b e634 d03c
00000290: eb8e ffbc 1c53 e03d edbc c03d 59da 903d
000002a0: a920 823d bd1c 263d 9761 ea3d 120a ee3d
000002b0: b5ed ca3d cf8f c13d 4d6e 643d 7a99 9f3d
000002c0: 6ecb 9d3d ed9e 973d 5b53 ad3c a607 b3bc
000002d0: de37 81bc e25b 2abd a167 9bba 2b1b fb3c
000002e0: dba3 3dbc f754 d6bb eedf 343d 4e47 2bbd
000002f0: e539 0cbd f5f9 3abd d7f7 7b3d 85a1 033c
00000300: 1d63 65bc 9dff bc3d 8de8 c83d f46a d23d
00000310: 44e5 803d 4cb5 203d 7b88 943d c0e4 283d
00000320: d5f3 57bc 341b c8bc 8ef9 8c3d 7aac e23d
00000330: d3f5 97bc 3528 09bd e2a6 94bd b64e 49bc
00000340: 7688 703c 5b8b e2bc fe72 1c3d 8118 463c
00000350: 85f0 73bd 1a1e 873b 043a c3bb 8c56 43bd
00000360: e4c2 a2bc 7b79 8e3d 8eed 833d 90ad 1f3d
00000370: 7c5e fe3c 1815 f7bb 6011 6b3d 2a34 273d
00000380: 9bb3 993d 4436 203d 5351 ca3d 54c3 41bc
00000390: c590 5bbc b29e 5ebc 920d ee3c 60ec d4bd
000003a0: 62dc e9bd 02b2 90bd 8b2e 63bc 1626 a83d
000003b0: cccc ac3d 02e1 033e 339a aa3d 7db7 b1ba
000003c0: c73f f43c 482f 383d 532b 74bb 2234 0ebd
000003d0: 7e57 163d 25b1 963c 2616 b73c 3b16 d33d
000003e0: 047c c93d ee05 8c3c f6a3 893d c376 fa3c
000003f0: f53a 8c3d 8c31 c33c 6ef5 913d c7e4 043d
0.070137165 0.036340777 0.043759536 0.036013935 0.057441566 0.024877325 0.06913272 0.05866285
0.07885192 0.11886449 0.096391276 0.102676824 0.037277885 0.009111843 0.033583943 0.036468457
0.10414895 0.12528746 0.116590455 0.17156774 0.109606676 0.062829986 0.07889258 0.044053644
0.03378438 0.029986167 0.042168215 0.044208556 0.077214874 0.049686734 0.059673358 0.07954154
0.08091279 0.018025136 0.014161777 0.07228083 0.04891075 0.07767573 0.08260029 0.048493158
0.068447374 0.018826697 0.083996356 0.1404943 0.15323418 0.13052703 0.10633557 0.14817348
0.11241906 0.08099605 0.096178636 0.033054017 0.07317258 0.054299068 0.0174334 0.06930815
0.011672726 0.07423406 0.057149615 0.031334225 0.10203113 0.050367747 0.085860364 0.078297466
0.049021736 0.02175766 0.04907363 0.08157688 0.06439867 0.04470039 -0.027172985 0.019575737
0.059551366 0.083971255 0.13133848 0.004080216 0.03480347 0.040740207 0.035439674 0.07087098
-0.0052980697 -0.020381987 0.0009973231 0.05113167 0.008250597 0.03560795 0.030781012 0.038661253
0.05561935 0.061391342 0.04890867 0.038531758 -0.03387239 -0.024075352 -0.09808829 -0.06450569
-0.05892214 -0.03398346 -0.045611218 -0.05271716 0.014407637 0.027703391 -0.0074953884 0.031981222
0.046315998 -0.04587961 -0.07123877 -0.018094422 -0.009247029 -0.015255762 0.0409622 0.05241498
0.022987349 0.07851162 0.10256612 0.06115441 0.02857287 0.064154774 0.07645276 0.07324129
-0.02322734 -0.09650699 -0.088429734 -0.15359727 -0.09078969 -0.051267173 0.01788746 -0.04237658
-0.016531419 -0.022015948 -0.031988285 -0.07065351 -0.04902492 -0.043748517 0.009920288 0.06970474
-0.026753452 0.057823505 0.041153863 0.07420376 0.040279556 0.03640388 0.08570429 0.086548224
0.10174322 0.08489855 0.07006989 0.07254575 0.06449191 0.033954564 0.05635154 -0.07859428
0.011679849 -0.0113123255 0.05145951 0.061456684 0.020991337 -0.060618423 -0.067293 -0.081058264
-0.040701397 -0.08166501 0.004049333 0.025415849 -0.031196078 0.10953352 0.09411035 0.070728965
0.06353886 0.04055475 0.11444395 0.116230145 0.0990862 0.094512574 0.055769254 0.07792945
0.07704817 0.074033596 0.021157911 -0.021854233 -0.01577371 -0.041591533 -0.0011856445 0.030652603
-0.011574711 -0.0065408903 0.04415887 -0.04181605 -0.0342349 -0.045648534 0.061515655 0.008034115
-0.014000681 0.09228442 0.098099805 0.10274306 0.06293729 0.0392354 0.07252594 0.041233778
-0.013180693 -0.024427034 0.06883536 0.110680535 -0.018549835 -0.03348561 -0.07258393 -0.012286833
0.014680972 -0.02765434 0.038195603 0.012090803 -0.05955555 0.0041234614 -0.0059578437 -0.04768996
-0.019868322 0.06956764 0.06441794 0.03898388 0.031050913 -0.0075403564 0.057389617 0.040821232
0.0750496 0.03911425 0.098787926 -0.011826355 -0.013401215 -0.013587641 0.029059205 -0.103966475
-0.11418988 -0.07065202 -0.013866077 0.08210389 0.084374994 0.12878802 0.083301924 -0.0013558712
0.029815568 0.044966966 -0.0037257269 -0.034717686 0.036704533 0.018395016 0.022349428 0.103069745
0.09838107 0.017092671 0.06720726 0.030574208 0.06847183 0.023827337 0.0712689 0.03244474

input_layer.bias f4 [150]
00000000: 4118 8fbd 41bb 3dbd 9bec e9bc 5519 21bd
00000010: f85f 1f3c 2f1b 92bd ac71 01bd 6647 d93c
00000020: cc72 223d d0d2 c4b9 503a 40bc 27ec d4bd
00000030: b1fa 82bd 0a94 06bb caef f23b 4fc1 833b
00000040: 1444 e33c bdfe 3bbd 18b2 5e3c 2054 d3bc
00000050: 4ae1 b5bc 5327 c43c 91dd 8eba aa69 b3bc
00000060: f5ac ae3d 8254 e23c 7e84 a73b 83b4 b9bc
00000070: 00ef 123c 4a7c f9ba b618 0abd 86ef 1bbd
00000080: c359 803b f70a 2bbc 234d 063c 426c 85bd
00000090: 4b16 c1bc 7db1 b1bb 6eb7 2c3a 15cf 543d
000000a0: a73a 1fbd ce7b a3bc 9729 74bd 7805 c9bc
000000b0: c972 af3c c744 0fbd f50f 833d 4d1c e83b
000000c0: 4964 13bd 3918 8bbd f75f 2c3c 5194 9ebb
000000d0: 3dff 81bd 1b7a 96bc 8dfb 3e3c ce18 d3bc
000000e0: f7c2 9cbd bcf7 74b8 62f7 77bc 578e 93bb
000000f0: 4b4e 31bd 74dd 15bc 26be 5dbd 7573 25bd
00000100: 95a0 cd3c a7a7 8bbd b48e 87bd 6451 84bb
00000110: 3b80 2cbd 0ec1 9c3c dd1e 06bd 6edf 0abc
00000120: 8f22 8f3c 6ca3 30bd 5214 1ebd a9d4 4ebc
00000130: 25fd ad3c 72fd 36bd 0108 5ebd f9fd 54bd
00000140: 8b1d aebd 4b70 0e3c eccb 36bd 80cb edbd
00000150: 103e 9abd 4284 223d d15c d4bc c0ff 77bd
00000160: 9a56 9f3c 428e 58bd 18b9 39bd f378 4cbd
00000170: dec4 4fbd a644 22bd 9820 ee3b 7ecc 5abd
00000180: d92a 9b3c 71aa c4bd 2d35 16bd ee4e 47bc
00000190: 554f a9bc 152a c4bd d768 e5bc 8eb5 d43d
000001a0: be3c 9fbc fdca 8abd 3478 283d 68e2 0a3d
000001b0: c2e3 b83a f771 b3bd bdb4 9abd b1e5 1b3c
000001c0: fd46 393c 018b 6dbd 362a abbd 4998 33bd
000001d0: ff81 76bd bf71 1e3d 9fd9 29bc dd75 69bd
000001e0: 743a 5ebc 219c 16bd b306 18bd ce88 cf3d
000001f0: 4eac 84bd c762 3bba 7f60 51bd f954 09bd
00000200: ee8e 59bd 58ac 2abb ba99 aebd ec8d 893a
00000210: 1465 15bd 0210 b0bc f25e adbc 7d28 913a
00000220: 1ef4 df3a 35b6 3abd ae8c 9dbd 10f0 61bd
00000230: 4e1e 563c 1a81 d1bd 04ee c63c d4e1 d9bc
00000240: 6fb1 e63b a0fd aebc 9f9a 2cbc 19cc e3bb
00000250: eb59 c83c 55bd 2abd
-0.06987048 -0.046321157 -0.028555205 -0.0393308 0.009727471 -0.07134091 -0.031602547 0.026523303
0.03966026 -0.000375411 -0.011732653 -0.10396605 -0.06395472 -0.0020535016 0.007413839 0.004020847
0.027742423 -0.045897234 0.013592266 -0.02579695 -0.022202153 0.023944532 -0.0010899772 -0.02190097
0.08529083 0.027628187 0.00511223 -0.022669083 0.008968115 -0.0019034233 -0.033714972 -0.038070224
0.0039169504 -0.010439626 0.008197102 -0.06514789 -0.0235702 -0.0054227696 0.00065886125 0.0519553
-0.038874295 -0.019956496 -0.059609976 -0.02453874 0.021417039 -0.0349777 0.06399528 0.007083452
-0.03598431 -0.067917295 0.010520927 -0.004839458 -0.06347511 -0.018368771 0.011656654 -0.025768664
-0.07654374 -5.8404854e-05 -0.015134664 -0.004503052 -0.043287557 -0.009147037 -0.054136418 -0.04039331
0.025100986 -0.068190865 -0.06619015 -0.004038023 -0.042114478 0.019135024 -0.032744277 -0.008476121
0.017472534 -0.0431246 -0.038593598 -0.012623944 0.021238873 -0.044675298 -0.054206852 -0.05200002
-0.085017286 0.008693765 -0.04462807 -0.1161108 -0.07531369 0.039676912 -0.025923165 -0.060546637
0.019450475 -0.052870043 -0.045342535 -0.049920034 -0.050724857 -0.03961625 0.007267069 -0.053417675
0.01894133 -0.096028216 -0.036671806 -0.012164814 -0.020667711 -0.09578339 -0.028004093 0.10386191
-0.019438144 -0.06776998 0.04113026 0.033907324 0.0014105963 -0.087619714 -0.07554004 0.009515212
0.011308429 -0.057993893 -0.083576605 -0.043846402 -0.060182568 0.038682695 -0.010366826 -0.05699717
-0.013563741 -0.03676999 -0.037115764 0.10133515 -0.06478177 -0.0007148203 -0.051117416 -0.033528302
-0.053114824 -0.0026042666 -0.08525415 0.0010494567 -0.03647335 -0.021492008 -0.021163438 0.0011074689
0.0017086302 -0.045583922 -0.07692848 -0.055160582 0.013068749 -0.10229702 0.024283417 -0.026596941
0.0070401947 -0.021361172 -0.010534911 -0.0069518206 0.024456939 -0.041684467

output_layer.weight f4 [10, 150]
00000000: 6493 1c3e 0577 bb3d 3248 873d e70d cfbd
00000010: bb6a 73bd aebf e03d 78f7 58bd 3fc5 1a3d
00000020: 9753 74bc 3deb 4d3d f17b 52be 0baf 5abd
00000030: f11a 9b3d c2ce ca3d 6be3 1d3d 4bb4 583d
00000040: 8faf e5bb fc86 b43d d33d 82be ee76 40bc
00000050: 74af a5be 10eb 983d eca0 03bd e733 89be
00000060: 5519 023d 21f2 72bd 4c0a b83d f9f0 123e
00000070: 0e40 eb3d 43f4 d63d 9c68 9dbe e008 c6be
00000080: fd83 da3c 40e0 b2bd 7df2 183d e7d6 1ebd
00000090: 15a4 0bbe ec11 d3bd d933 14bb bf46 223e
000000a0: cac0 213e fd9f ec3d be6d 0abe 5db2 653c
000000b0: caae 913a 6c0f 8f3c 3725 21be 9582 f23d
000000c0: 28c3 503c 4fea 3cbd 6b74 2b3e 0d8c 0dbe
000000d0: fbc3 c33d 1da2 8a3d 1fbd d43d 7747 64be
000000e0: bed7 ca3d bb0d 82bd a6e3 cc3c dada 6abd
000000f0: 6252 383e 4121 9fbd 8eeb b0be 9096 763c
00000100: 6c72 20be c515 aabd 3283 4abd 5454 be3c
00000110: f40d 6dbe 55d6 a23d 698c 6dbd cbc1 1abf
00000120: 95a2 2fbd 43f2 3ebe 38d6 483d 6775 3d3c
00000130: 4fde 78bb 7f51 223d c03b 2fbe c7a8 ccbc
00000140: 6f9b e33c 38e1 c13d 81ce 9bbc f780 453d
00000150: bbb0 643d fb15 c73d 3d2f 873d 59cb 6bbd
00000160: ca5e b13d b3fa d2bc c35b 1d3e 9737 b63d
00000170: 0ae0 c2bd 1901 eebd f327 2abe d8a9 fc3d
00000180: c1d4 97be c201 df3d a835 a7be c117 03be
00000190: 2883 bc3d 633d 84be 2d01 0dbe 0364 31bd
000001a0: 002d db3c 00d7 bcbd 7050 f8bc 6e99 e23d
000001b0: 53d1 a8bc 22a0 c63d c585 8dbe 6fdc 313d
000001c0: 3bc7 113d d92e b4bd 0c9d 0fbf ecd8 113d
000001d0: fa7a 0abd b9eb 533d 9fc3 f83d 9f20 5a3d
000001e0: 168e a0be f0ac b0bb 570d f63d 4477 d03c
000001f0: 095e 833d dcc2 413e 1892 40be 437f fcbe
00000200: 2abb 12bc 1fdb ecbd b205 fa3d 1c72 823d
00000210: aaba 7fbe 928f 513d 0bfe 91be eb18 21be
00000220: 728f babb b37f 5bbe 413b 32be c9ac 40bc
00000230: 509e 183e 1ba1 f2bd 3843 2abe 3a4c 6fbe
00000240: 11e6 3e3e b4c0 c7be e732 9fbd d179 573d
00000250: 55e4 933d 2fbe f73d 8926 6bbd 3d0d b3bc
00000260: 2ec9 acbe 7b49 2f3e 9d5b 05bd 0cfc a6be
00000270: 3b61 17be c28e 31bd c2c6 b1be ff1d 9a3e
00000280: 8eb5 523e d614 e1bd 9466 083c 6ec5 e8bd
00000290: 7821 48be d074 9a3d 963b 1cbc 7487 73bc
000002a0: 5e22 133d bbb9 5abd 5792 f1bd 5d0f 87bd
000002b0: b5a7 29bd 1787 d9bd 25d6 16be b808 72be
000002c0: 8383 003e 2916 de3d 4d90 c0bd f420 223e
000002d0: a8e4 1f3c 6ab4 2f3e 2489 733c eb98 8e3d
000002e0: 5dbe 1b3e 6609 5c3d c163 083d 67bd c03d
000002f0: 7b2c 463e 541a 56bd b297 49be d980 91bd
00000300: 4b79 763e 3a85 363e 498c c23d ce42 74bd
00000310: c110 08be 410e d4bc 2033 533d c08f 083e
00000320: 997a 8dbc f716 883d 4c08 a7bc 8318 e1bd
00000330: 5cee b9bc f20a 923d 2d6a 393d a1dc 54bb
00000340: d6b6 023c 81ca 13bd 4efb 7a3e faa3 d43d
00000350: 4f03 88be cab9 10bd c0c9 f9bd f974 973c
00000360: 30b7 9bbb f553 f0bc 68a1 9a3d 0f10 833e
00000370: ad5d fb3c e7eb 75be 610e e03d 951d 95bd
00000380: 3e06 363d 4a83 7dbe 378b 9cbd ce93 07be
00000390: 1aab 1c3e 25f7 c83d ec87 f13d 4d79 febd
000003a0: 5235 bcbd c895 dc3d 47ea 863e beba 8bbc
000003b0: 24d1 8bbc f25c b43e b4b9 c83c 675d 453e
000003c0: 3d71 a73d ca7a 94bd 5821 823d 036a 53bd
000003d0: 8330 7d3e 180b 8ebe 44d6 9c3d 9860 833e
000003e0: 5f72 853d e211 2bbe c11f 01be 66b7 0d3e
000003f0: c328 133e fa23 0dbe dc0d 5fbe 2cae a03d
0.152906 0.091535605 0.06605567 -0.101100735 -0.059427958 0.1097406 -0.05297038 0.037785765
-0.0149125075 0.05027317 -0.20555092 -0.05338959 0.07573498 0.09902717 0.03854696 0.052906316
-0.0070094536 0.08814809 -0.25437793 -0.011747105 -0.32360423 0.074667096 -0.03213589 -0.2679741
0.03176244 -0.059312943 0.08986339 0.14349736 0.11486827 0.10495808 -0.30743873 -0.38678646
0.026674265 -0.087341785 0.03734063 -0.038779166 -0.13636811 -0.10306153 -0.0022613911 0.158473
0.157962 0.11553953 -0.13518426 0.014019576 0.0011114713 0.017463408 -0.15736853 0.11841313
0.012741841 -0.04612189 0.16743629 -0.13822956 0.09558865 0.06769202 0.103876345 -0.22292887
0.09904431 -0.06350275 0.025010895 -0.05733762 0.18000177 -0.077700146 -0.34554714 0.015050545
-0.15668648 -0.083049335 -0.049441524 0.02323357 -0.23149854 0.07951037 -0.057995234 -0.60451955
-0.04287966 -0.18647103 0.04903242 0.011563635 -0.0037974303 0.039628502 -0.17112637 -0.024982823
0.027784077 0.09466785 -0.019019367 0.048218694 0.055832606 0.09720989 0.06600807 -0.057566974
0.08660658 -0.025754308 0.15367036 0.08897322 -0.09515388 -0.11621303 -0.16616802 0.123370826
-0.29654506 0.10889007 -0.32658124 -0.1280203 0.092047036 -0.25828084 -0.1376998 -0.04330827
0.026754856 -0.092206955 -0.030311793 0.11064421 -0.020607626 0.09698512 -0.2764112 0.043423112
0.03559039 -0.08797998 -0.5609901 0.035607263 -0.033808686 0.051738475 0.12146687 0.053253766
-0.31358403 -0.0053917095 0.12014263 0.025447495 0.0641442 0.18921989 -0.1880573 -0.49315843
-0.008955756 -0.115652315 0.122081175 0.06369421 -0.2497355 0.05116231 -0.28514132 -0.15732162
-0.0056933695 -0.21435432 -0.17405416 -0.011759945 0.14904141 -0.11847135 -0.16627204 -0.23368922
0.18642451 -0.39014208 -0.07773381 0.052606408 0.07221285 0.120968215 -0.057409797 -0.021856898
-0.33747238 0.17117874 -0.032558072 -0.32614172 -0.14783184 -0.043349035 -0.34721953 0.3010101
0.2057707 -0.10990302 0.008325238 -0.11365782 -0.19544017 0.075418115 -0.009535691 -0.0148638375
0.035921447 -0.053399783 -0.1179549 -0.06594727 -0.041419704 -0.106214695 -0.14730127 -0.23636138
0.12550168 0.108440705 -0.09402523 0.15832883 0.009759106 0.17158666 0.01486424 0.069627605
0.15209337 0.0537199 0.033298258 0.09411126 0.19352905 -0.052271202 -0.19686773 -0.07104654
0.24069707 0.1782426 0.094994135 -0.059634022 -0.13287641 -0.025885703 0.05156243 0.13336086
-0.017270373 0.06645005 -0.020389698 -0.10991003 -0.022696666 0.07130994 0.045267273 -0.0032480138
0.007978162 -0.036081795 0.24509928 0.103828385 -0.26565024 -0.035333432 -0.12196684 0.018488394
-0.0047520623 -0.029336909 0.07550317 0.2559819 0.030684317 -0.24015771 0.109402426 -0.07281033
0.044439547 -0.24757114 -0.076437406 -0.13239977 0.15299645 0.09812764 0.11793503 -0.1242548
-0.091898575 0.10770756 0.26350614 -0.017056819 -0.0170675 0.35227162 0.024502613 0.19273911
0.08175895 -0.07249983 0.06354016 -0.051614773 0.24725537 -0.2774284 0.076580554 0.25659633
0.06515955 -0.1670604 -0.1260977 0.13839492 0.14371018 -0.13783255 -0.2178263 0.07845721

output_layer.bias f4 [10]
00000000: 4dd8 80bd d06b 24bd 3a37 0ebd 0188 c3bd
00000010: b16e 203d b1fa 22bd 23fd 2f3d 34ff 1cbe
00000020: 9d77 843e 9004 f33d
-0.06291256 -0.04014188 -0.034720637 -0.09547425 0.039168064 -0.03978986 0.04296602 -0.15331727
0.25872508 0.118661046
