tut1-model_cnn.pt (torch, 473434 bytes, 10 tensors)

input_layer.weight f4 [32, 1, 5, 5]
00000000: 5636 413d aea2 813d d7c0 423e b9e0 593e
00000010: 6f2a 9e3d fa98 11be 6d30 a13d 0963 393c
00000020: 033d 02bd 4569 5dbe c3a9 4cbe 5fac 3dbe
00000030: 0281 b6be 9b4d c9be 79c0 a1be b6f8 32be
00000040: e891 5fbb d6e6 67bd 6cf6 513d 6c98 a73d
00000050: 8ee4 78be e14f b4bd 9a23 123d 7186 9b3c
00000060: 2ddc 493e 62a0 12be 18a9 2d3e 0e94 62bd
00000070: 6fbf 143e 65fd 3abc 1751 0d3b ef23 15bd
00000080: b928 22be 68b0 1bbd ea9e ddbc b063 88bd
00000090: d36f 01be 32a9 35be bba1 a8bc c214 213e
000000a0: 95ea 283d 05c0 2dbd c8b5 133d f1cd 2c3e
000000b0: af4c 0cbe 1658 90bd f4b6 b43d 7f41 383e
000000c0: b390 af3d b6c7 223e 608b 44bd 7952 40bd
000000d0: fe40 8bbe 6106 253d 25f8 7ebe 0a06 e83d
000000e0: 96fe 643d 1624 81bd 9725 4f3c 89fb 52be
000000f0: b276 a9bd fce5 f43d 7036 033e 570b 99bc
00000100: df47 69bd bec7 273e 1d2b 5fbc 1112 d43d
00000110: b817 b03d 5317 ebbd 469f 173e 989f ee3d
00000120: 1b7b 1b3e 7a3e 3cbe 8cc9 383e 8c43 943e
00000130: 7edf 273e ccb5 513d d01b 4dbe 649e 5cbe
00000140: 9738 133d 165e ca3d d1d1 a7bd 6f89 7e3d
00000150: 9f66 9dbe 7204 b33d 23da 12be 0ef5 413e
00000160: b5f7 043e 2316 2dbe 09bc 313c f6f6 bd3d
00000170: e3fa 11be 4a4d 763d 59ae 1ebe 787a f8bd
00000180: 1f51 d83c d769 f23d 7655 38bc 4f41 abbd
00000190: 99f8 92be 6e6e d23c d1b7 703e c858 003e
000001a0: b665 e9bd b98f cf3c 2dcf 083b 3b0f 653e
000001b0: cfbd 44be 896b e13a c347 b23d 2955 2d3e
000001c0: 5678 45be 1399 2ebe ac81 22be 0e73 6cbe
000001d0: bb58 243e 0656 2cbe 5799 4e3c 3c66 743d
000001e0: 9cfc 4c3d 2d03 e3bd 52af 193d 12fa 82bc
000001f0: 0f36 b83d 3df0 583e f826 303e 3814 5e3e
00000200: be7a e83d 2473 4f3e bf88 b13c 1937 4ebd
00000210: 50b6 aabb 641e 98bd 3100 6bbd 0bcc 79be
00000220: 25b4 d6bd bd69 52be d552 6bbe 1267 d83c
00000230: eaf4 bebd 59a9 01be 2f58 2dbe 7f50 7a3d
00000240: 8a29 ebbd d3c3 b4bd 5425 923d 7414 173e
00000250: a1c0 2b3e 3d06 c8bd e969 a4bd ff3b 693e
00000260: 26d5 13be 88f3 2d3b 840b 653d 46c8 9cbe
00000270: 172d a7be a6cf 053d f8eb 2c3e a16a 17bd
00000280: df2d 05be 62e6 febd 28e9 9a3d d7aa 333c
00000290: 39c5 2c3e 3c8b 263e d46f 123e f46c 59be
000002a0: bc7f 84be d68e 3ebe 4097 533e b11f 8c3d
000002b0: 2b73 283d 1e8d 19be 3206 55be a34d e7bd
000002c0: cfff c03d 6654 14be 0c83 84bc b4a1 403e
000002d0: db62 b53c 679d a43d 0322 173e 0490 05be
000002e0: e9c9 b03d 621f 4abe bb69 85bd 6cca 043e
000002f0: efb2 4abc 5895 0fbe fd4d d93c db5d f7bd
00000300: c4d4 a7be 339f 8fbe 23af e53b b74b 61be
00000310: 3709 c5bd 16a0 673d c6fe 83bb 67fa be3d
00000320: f487 22bd 44c1 963d dbc1 99bc 6f87 0e3e
00000330: 3f0e 5f3d 52ac afbe d2cf 80bd 073a c23d
00000340: 21dd 03bc 1133 233d e014 f6bd ff6f b6be
00000350: 93f0 a9be bfff 80be 0b50 6bbe 0e69 9239
00000360: f799 a73b 3de7 95be 6d88 0cbd 9b83 82be
00000370: 05b0 e03d 791b 363e 7e22 473e cab9 653d
00000380: f8d7 bebd 7087 973d 453d fabd 7d88 483d
00000390: f783 f73c 40fb 8b3d cf69 383d 453a 05be
000003a0: ce7d 993d 1074 08be 7b68 1a3e 87c1 4b3d
000003b0: 7e27 c53d 0f6b 90bc 6144 87bd 6819 47be
000003c0: 4bf3 acbc 94fc 623d ce27 a93c f53d 233e
000003d0: f773 b5bd 1af7 a8bd 6611 36be 24b0 233d
000003e0: 725d 35be 1fc6 bfbd 145d 43be 1489 1dbe
000003f0: 83aa 1a3e 70f0 89bd c04f 2ebe 4ee7 f1bd
0.04717096 0.06329857 0.19018875 0.21277131 0.07722937 -0.14218512 0.078705646 0.011315116
-0.031796467 -0.21622188 -0.19986634 -0.18522786 -0.356453 -0.3931702 -0.31592157 -0.17477688
-0.0034114067 -0.056616627 0.051260397 0.08183369 -0.24305937 -0.08804298 0.035678484 0.018985005
0.19712897 -0.14318994 0.16959035 -0.055316977 0.14526151 -0.011412953 0.0021563226 -0.036411222
-0.15835847 -0.03801003 -0.027053315 -0.06659639 -0.12640314 -0.17740324 -0.020584932 0.15730575
0.04123934 -0.042419452 0.036062032 0.16875435 -0.13701127 -0.07048051 0.08823958 0.17993735
0.08572521 0.15896496 -0.04798448 -0.046953652 -0.27198023 0.040289287 -0.24899347 0.11329277
0.055906855 -0.06305711 0.012643239 -0.20603766 -0.082745925 0.119579285 0.12813735 -0.018682165
-0.056953307 0.1638479 -0.013621119 0.103550084 0.08598274 -0.11479058 0.14806852 0.11651534
0.1518368 -0.18383208 0.18045634 0.28957784 0.16393849 0.051198766 -0.20030141 -0.21544796
0.03594264 0.09881227 -0.08194316 0.062142786 -0.30742356 0.08741082 -0.14341025 0.18941137
0.12985118 -0.16902976 0.010848054 0.0927562 -0.14255862 0.060132302 -0.15496196 -0.12132734
0.026405869 0.118365936 -0.011250844 -0.08362066 -0.2870529 0.025687423 0.2350762 0.12533867
-0.11396353 0.025337087 0.002087544 0.22369091 -0.19213031 0.0017198186 0.08705094 0.16927017
-0.19284186 -0.1705058 -0.15869778 -0.23090765 0.16049473 -0.1682969 0.012609801 0.05966781
0.050045595 -0.1108459 0.037520714 -0.015988383 0.08994686 0.21185394 0.17202365 0.216874
0.11351536 0.20258766 0.02167165 -0.050345514 -0.0052097216 -0.074276716 -0.05737323 -0.24394242
-0.104835786 -0.20548148 -0.22980817 0.026416335 -0.093240574 -0.12662257 -0.1692817 0.061111923
-0.11482532 -0.08826413 0.07136026 0.14753896 0.16772701 -0.09766815 -0.08028013 0.22776793
-0.14436778 0.002654286 0.055919185 -0.30621547 -0.32651588 0.032668732 0.1688689 -0.036966924
-0.1300578 -0.12446286 0.07564002 0.010966024 0.1687211 0.16264051 0.14300472 -0.21232969
-0.25878704 -0.18609175 0.20663166 0.06841982 0.041125458 -0.14995238 -0.20803145 -0.11294105
0.094237916 -0.1448532 -0.01617577 0.18811685 0.022141865 0.080378346 0.14759068 -0.13043219
0.08632261 -0.19738534 -0.06514307 0.12967843 -0.012371763 -0.14021814 0.026526446 -0.120784484
-0.32779515 -0.28051147 0.0070094033 -0.22001539 -0.09620898 0.056549154 -0.004028174 0.09325104
-0.039680436 0.07361081 -0.018769195 0.13918851 0.054456946 -0.34311157 -0.062896386 0.09483724
-0.008048327 0.039843623 -0.120157 -0.3563232 -0.33191356 -0.2519512 -0.22979753 0.00027925562
0.0051147896 -0.29277983 -0.034309793 -0.25491032 0.10971073 0.17783917 0.19446751 0.056085385
-0.093185365 0.073988795 -0.122187175 0.04895829 0.030214293 0.068350315 0.045022782 -0.1301051
0.074946985 -0.13325524 0.15078919 0.04974511 0.09626673 -0.017629175 -0.06604839 -0.19443285
-0.021112105 0.05541666 0.020648863 0.15941603 -0.08860009 -0.08250256 -0.17780074 0.039962903
-0.17711428 -0.093639605 -0.19078475 -0.15384322 0.15104108 -0.06735313 -0.1702261 -0.11811696

input_layer.bias f4 [32]
00000000: f2a1 16be 82f2 bcbd 64c1 59bc 183f 2cbe
00000010: 29c7 07be ec00 83bd 5587 a13d ae60 11be
00000020: 06da ad3d b78c 61be 49d5 b13c cda6 acbc
00000030: a5bd 78be 222f e93c bf83 c2bd 94b6 3fbd
00000040: 05e2 19be 1611 68be 0761 9ebc 7284 20be
00000050: 1755 41be 202d 75bd 9ae5 0bbe 6ccd 26be
00000060: 0ffb a4bd bb43 0bbe 8fc4 38be 3a00 ebbd
00000070: c182 95be 15d3 203d bee9 a0bd d2b4 73bc
-0.14710215 -0.09225942 -0.013290737 -0.16820943 -0.13259567 -0.0639666 0.07887141 -0.14197037
0.0848885 -0.22026335 0.021708148 -0.02107563 -0.24291094 0.028464857 -0.09497785 -0.04680498
-0.15027626 -0.22662768 -0.019333376 -0.15675524 -0.18880115 -0.059857488 -0.13661805 -0.162893
-0.08055698 -0.13600056 -0.18043731 -0.114746526 -0.2920132 0.039263804 -0.07857083 -0.014874654

conv1.weight f4 [64, 32, 5, 5]
00000000: ac2d 70bc 03c8 9fbd 846e 71bd 3b59 79bd
00000010: d147 d3bc 1e65 7dbd 30cf 60bd ea12 3bbd
00000020: 3305 6ebd 4809 a1bd 2145 48bd 1bb6 a5bd
00000030: 3c96 e0bc edbf 3cbd 6fca bebc 9e50 cfba
00000040: 681c f1bc d569 34bd cdb1 4abd f4fd 22bc
00000050: bf50 ec3a 8185 11bd e711 153d 4348 a0ba
00000060: 41d1 53bc a7e4 2abd 4902 36bd 1a13 18bc
00000070: b2f2 cfbc 8316 1fbc 204d 57bc bf90 24bd
00000080: 8470 453b 9188 bb3b 9a0b fabc 48b0 a0bb
00000090: d888 8bbc 6969 81bd 17f3 8cbd 19d4 82bd
000000a0: 287c 02bd 78c6 9dbc 1a4c b0bd 194a 7dbd
000000b0: 8f85 83bd e0f0 8fbd 2e10 19bd 4f1b 07bd
000000c0: beb4 f2bc 78d8 f0bc 98ec 1e3c caf8 60bc
000000d0: 6742 5abd 0b8c a3bb ef59 2dbd ff76 133c
000000e0: 22ca 25bd 2217 76bc db29 2cbd 6fc3 1abd
000000f0: f065 0ebd 2213 283c 48d5 febc 72c9 3abc
00000100: 745a 43bd bf9e 5fbd e05a 3cbd 0a02 cd3b
00000110: f0f4 a0bb fa2a 1c3a 4532 3abd 36b0 15bd
00000120: ed88 2cbb ed52 5ebd 0c76 10bd fc1c 1a3a
00000130: 2d8c 83bc b897 5dbd 67a0 37bd d772 7cbd
00000140: 31f4 04bc 811f 82bd 78bb 84bd 27fe 6abd
00000150: 6c61 96bd f5ce 00bc ead7 4fbd c45c 8ebd
00000160: 938a 66bd 1cf0 93bc 924b 40bd ca32 0dbb
00000170: 852a b1bc 36de 07bd 0e16 8fbd 213a 13bd
00000180: d389 24bd e9ca 7ebd 3320 34bd 16a8 9dbc
00000190: 7795 f9bc c365 29bd 95ce 73bc b1e8 0bbd
000001a0: 7799 91bc cc50 c83a 5276 6bbd e999 fabc
000001b0: e667 6abc ac41 443a c155 01bd 40c6 d0bb
000001c0: daa7 22bb dfaf 1cbd d383 3ebd e6b4 eabc
000001d0: 3b11 59bc 1e3c 91bb 1c65 d0bc a2cb 5cbd
000001e0: b6ad bdba 2748 1bbc 1dd1 0dbd 3e72 29bc
000001f0: 1a10 2d3a 2140 efbc 3fca 9dbc 1383 13bc
00000200: 367c 65bd 08d2 61bd be77 37bd 3ef9 d3bb
00000210: bb04 84bc 4f70 79bd 58bd 11bd 27f1 e7bc
00000220: 7e39 17bc f34a 28bd 6992 9dbc 892b 24bd
00000230: 35f4 36bd f7c7 913c c5cf f63b b7a8 16bd
00000240: f490 733b 9ec2 18bc c83a 0f3b ce01 7f3c
00000250: c1f7 ef3c 5fcd b4bc 41cd 95bc 5eea 5cbd
00000260: 85ca 7fbd e010 39bd 609e 1ebd e2e1 8dbd
00000270: 4e38 dabc f9f9 07bd 0127 78bc e0e9 33bd
00000280: 7e76 83bd 579b 84bd 5294 babb 044d f5bb
00000290: 412b 69bd ba22 adbd de7e 54bb b8f5 e9bc
000002a0: 493c 74bd 8039 93bc 856b 3e3a fbb3 01bc
000002b0: de82 d53b 385a 17bd 06eb b43b 9572 5fbd
000002c0: 6cbd 0cbd 7848 72bd 82fa 87bb 70be 72bd
000002d0: f507 9abd 23ad 51bd 1c47 a2bd ab3a 4dbd
000002e0: 75d1 00bd 5860 4abd 73ba 84bd 63af b3bc
000002f0: 39a3 7d3b b19d 1dbd fb6f 89bc 73b7 f43b
00000300: e8f7 c9bc a350 88bc 99b6 28bb d6d8 83bd
00000310: 422a 52bd b7b3 12bd 201b 2ebb b025 b33c
00000320: b39b 8dbd 48f7 9ebd 3efb eabb bd7e 23bc
00000330: 8a3a 3dbc c02b a1bb 975a 7ebd cce5 34bc
00000340: f428 c13a 731b 01bb b0e1 6fbd bb1b 85bd
00000350: cc52 55bd 94a2 75bc cbd4 74bd 554e 19bd
00000360: 5143 90bd 82ed 3abc d921 25bd 3f92 16bd
00000370: 25aa 2fbd 80fa c2bc 3ecd 83bc 626e 4c3b
00000380: 43ab 0b3b f51c 19bd 2577 bbbb 62ce 5abd
00000390: 9715 30bd c063 a9bb 9f77 83bc 7718 1dbd
000003a0: 437e 35bd ead5 86bd 7f1b 82bd f0c3 c038
000003b0: 85f3 47b7 8f67 14bd d8e4 193a 9153 edbb
000003c0: f0f5 2cbd ef5a c8bc 26b7 82bd d531 a1bc
000003d0: 714b 8dbd 1a94 25bc 514c 413b 13e6 66bd
000003e0: ed96 07bd a130 debc c1d7 17bd 5712 643c
000003f0: 79ae 62bd 26b7 8cbd c736 0dbc 7984 c6bc
-0.0146593265 -0.07801821 -0.058943287 -0.060876112 -0.02579108 -0.06186401 -0.05488509 -0.045672335
-0.058110427 -0.078630984 -0.04889405 -0.080913745 -0.027415387 -0.046081472 -0.023289887 -0.0015816872
-0.02943249 -0.04404624 -0.04948597 -0.009948242 0.0018029435 -0.03552771 0.036394026 -0.0012228567
-0.012928308 -0.041721966 -0.044435773 -0.009281898 -0.02538428 -0.009709957 -0.013140947 -0.040177103
0.003012688 0.005723067 -0.03052311 -0.004903827 -0.017033026 -0.063189335 -0.06882303 -0.06388111
-0.031856686 -0.019259676 -0.08608265 -0.061838243 -0.06421959 -0.07028365 -0.037368946 -0.032985028
-0.0296272 -0.029400095 0.009699963 -0.013731191 -0.053285982 -0.0049910597 -0.042322095 0.009000539
-0.040475972 -0.015020164 -0.042032104 -0.037784036 -0.034765184 0.010258468 -0.03110756 -0.011400567
-0.047693685 -0.05459475 -0.045985103 0.0062563466 -0.0049120113 0.0005957332 -0.045458097 -0.036545
-0.0026326731 -0.054278303 -0.03526883 0.0005878953 -0.016058052 -0.05409977 -0.044830706 -0.061632957
-0.00811486 -0.06353665 -0.06481069 -0.057371285 -0.073428005 -0.007861842 -0.05074302 -0.069512874
-0.0562845 -0.018058829 -0.04694707 -0.0021545165 -0.02162672 -0.0331709 -0.069866285 -0.035944108
-0.040170502 -0.06220523 -0.04397602 -0.019245189 -0.030466778 -0.041356813 -0.014880796 -0.03415746
-0.017773373 0.0015282868 -0.057485886 -0.030590968 -0.014306998 0.00074865925 -0.031575922 -0.0063712895
-0.0024819286 -0.03825366 -0.046512436 -0.028650712 -0.013248737 -0.0044322154 -0.025438838 -0.053905137
-0.0014471326 -0.009477652 -0.034623254 -0.010342179 0.00066018256 -0.029205384 -0.019261478 -0.0090034185
-0.05602666 -0.055131942 -0.04479193 -0.006468921 -0.016115537 -0.06089812 -0.035580963 -0.028313233
-0.009230016 -0.041087102 -0.019234853 -0.04008058 -0.044666488 0.017795546 0.0075320923 -0.036781993
0.0037165256 -0.009323744 0.0021855105 0.015564395 0.029292943 -0.022070585 -0.01828635 -0.053934447
-0.062448997 -0.04518211 -0.038725257 -0.06927849 -0.026638176 -0.033197377 -0.015146018 -0.043924212
-0.06419085 -0.06474941 -0.0056939507 -0.0074859876 -0.056926016 -0.08453889 -0.0032424252 -0.02855955
-0.059627805 -0.017971754 0.00072639465 -0.007916446 0.0065158447 -0.036951274 0.005521181 -0.054552633
-0.034360334 -0.059151143 -0.004149736 -0.059263647 -0.07521049 -0.051190507 -0.07923719 -0.05010478
-0.031449754 -0.049408287 -0.06480875 -0.021934217 0.0038702025 -0.038480464 -0.01677703 0.007468158
-0.024654344 -0.016640013 -0.0025743602 -0.064378425 -0.05130983 -0.03581592 -0.002656646 0.021868557
-0.06914463 -0.07762009 -0.0071710637 -0.009978947 -0.011549601 -0.0049185455 -0.062098112 -0.011041116
0.0014736936 -0.00197002 -0.05856484 -0.0649943 -0.052080914 -0.014992375 -0.059773248 -0.03742822
-0.070440896 -0.011409165 -0.040315483 -0.036760565 -0.04288687 -0.023801088 -0.016089078 0.0031193723
0.0021311797 -0.03738113 -0.0057209902 -0.05341948 -0.04298934 -0.005169362 -0.01604825 -0.03835341
-0.044309866 -0.065837696 -0.06352901 9.19177e-05 -1.1918023e-05 -0.036231574 0.0005870587 -0.007242628
-0.04222673 -0.024457423 -0.06382589 -0.019677082 -0.06899155 -0.010106111 0.002949495 -0.05637176
-0.03310292 -0.027122797 -0.037070993 0.013920388 -0.05534217 -0.0687087 -0.008619017 -0.02423309

conv1.bias f4 [64]
00000000: 7cd1 44bd bf81 1b3d 8d4c 7fbc 0a18 0a3d
00000010: a39a 443c 1c40 38bd 24ef 173d e213 a3bb
00000020: 8fa8 3e3c 5f19 b3bc 4036 12bd 2a49 083b
00000030: 3352 9bbc 2be1 8abc 4659 04bd 8ceb 31bd
00000040: 08ab 18bb c721 8a3c c468 dfbb 4ebc a63c
00000050: e9e5 f5bb ff27 66bc 0d8c 40bd dbc2 8b3b
00000060: a62b cdbc 1985 9ebc 46c1 f8bc 50f1 2abd
00000070: 0ae4 143d e53c 873c 2463 b7bc 275b 7fbb
00000080: 5863 17bc c5e9 723a e4ff 0b3d 8e13 3f3d
00000090: 0092 4cbc 16ac 8ebd 85e1 24bd 5852 d13c
000000a0: 0b61 d0bc f68f e93c 9147 d33a a740 2ebd
000000b0: 7b5c 9dbd 8ab7 0ebd 87fc 043d 1c97 633c
000000c0: 93e0 a23c 9f17 843d 1613 9fbc da44 6b3a
000000d0: 1de3 2b3d 9e85 ec3b b64c 423d 7b8a 8bbc
000000e0: de8f adbc 1bb4 81bd 6f27 bebc 481a 463c
000000f0: bdf6 49bd 6140 f03c 59b6 fe3c e784 59bd
-0.048051342 0.037965532 -0.015582216 0.03371433 0.011999759 -0.044983014 0.037093297 -0.0049767355
0.011636867 -0.021862684 -0.035696268 0.0020795562 -0.018960094 -0.016953072 -0.0323117 -0.043437526
-0.0023295302 0.01686181 -0.006817909 0.020353463 -0.007504214 -0.014047622 -0.047008563 0.004265172
-0.025045227 -0.019350575 -0.030365597 -0.04173404 0.036350287 0.016508529 -0.022386141 -0.0038964243
-0.009239994 0.0009266402 0.034179583 0.04664951 -0.012485981 -0.069664165 -0.040254135 0.02555196
-0.025436899 0.028511029 0.0016119351 -0.042542126 -0.07683655 -0.034843005 0.03246739 0.013891008
0.019882476 0.06449818 -0.01941828 0.0008974798 0.04196464 0.007218077 0.04743644 -0.017033806
-0.021186765 -0.063331805 -0.023212163 0.012091227 -0.049307574 0.029327573 0.03109281 -0.05310526

conv2.weight f4 [16, 64, 5, 5]
00000000: ec12 38bd f10d 523c a2f7 8ebc 533f 9d3c
00000010: fc5f 313d 9a8d 63bc 6147 76bc 9a9c e7bb
00000020: f4b7 70bc 24d8 363d f93f b4bc 492d 4fbb
00000030: d4cf 27bd 283a 263b 78b0 813c ddc8 31bc
00000040: d9c5 7e3c b2b4 66bd a706 443d 13f5 763d
00000050: 7793 37bd 7391 44bc afc4 523d 2634 173d
00000060: bad9 6a3c b850 bfbd 0863 cb3c f1d0 6e3c
00000070: 6c45 e0bd 71ca 8bbd 2dcf c9bc 5c1c 02be
00000080: 72f5 a0bd 2476 80bd 35d4 20bd a239 02bc
00000090: 0df0 92bd a439 dd3c 2a3f 15be 1076 863c
000000a0: 860f 373c f58c 3dbd 7470 a03c a497 ecbc
000000b0: 2db8 bbbc 28ed e23b 003a 5f3c 3e9c 24bb
000000c0: cb58 95bc d94c 65bc 33db 0fbe 014c 1fbe
000000d0: 5d6b 2cbe 11df 2dbe 0f7e 3ebe 25f7 03be
000000e0: bfac cebd a502 3abe 8738 c4bd 5f4f 173d
000000f0: 9762 7abd 7b3d adbd 76ff 7cbd abdf edbc
00000100: 0b9c fd3c 5cc5 bfbd f874 06be 317c ddbd
00000110: 9fad 93bd d996 08be ef03 f0bc e79a 7bbd
00000120: 720b eabc 2731 92bd c844 45bd c90b 2bbe
00000130: 41ed 91bc 1e24 f2bc 4b55 cebc 752f 91bd
00000140: 34c3 0abe 3a39 d7bc 5fd5 8bbd 4193 8a3c
00000150: 16cd 0e3c f22a d73b 6d2e 1dbd fbf2 2fbd
00000160: c8ff 0b3d ee60 bf3c 2cac d53b 4a80 8b3d
00000170: 3755 eb3c 5013 e1bc 09f9 453d 5c88 d1bc
00000180: ad0b b23b 8721 7b3d f905 603d 5ee7 943d
00000190: 7db2 f4bd e546 8cbc f016 a7bd 7ee8 c8bd
000001a0: 9fde 5e3c a0cf 0ebd 320e 2ebd 7408 69bd
000001b0: 5ac4 9ebd 50b9 aabd 3a3b c6bd c8e1 3ebd
000001c0: 2092 67bc 70b0 c93c d179 e33c 6afb a73c
000001d0: 8558 9fbb 1fef 3b3c d28f 773c f76a dfbd
000001e0: 6b10 c53c 90a5 183b b3dd eb3b fbfb 66bd
000001f0: 616d 1cbd 2b87 8c3c 4c5d 64bd 0f78 f2bc
00000200: a717 bc3d 5d8b ba3d cb36 b5bb 56b3 12bd
00000210: a6eb 85bd c91b c2ba b899 ad3d 7745 86bd
00000220: 1266 6bbc 7e17 8cbd f5d7 cd39 1828 3cbd
00000230: 8fb5 67bd 344a 0e3d 782d af3b 9145 16bd
00000240: 88ac a6bd 4ea3 02bd 9d29 e9bb 98f7 1fbd
00000250: 2b5f b7bd 4569 a4bd 6fb7 8bbd 9583 84bd
00000260: b187 97bd 4100 36be e65c dfbd 13ba aa3c
00000270: 0d35 b53d b660 b43d ee5f e8ba 3b80 27bd
00000280: e4c3 263d a26d 1c3d a6bf ab3c 700a cf3c
00000290: fca7 1d3d 3940 e23c 9045 f23c 9b97 093d
000002a0: 071a 683d 1c6e 5a3d 86dc a23d a00e ac3d
000002b0: 471a 663d a0ba 463d 8dd7 af3d 342e 8f3d
000002c0: 45db 343d 511f 6b3d a113 bb3d 1677 ee3d
000002d0: 8f79 213e 1f80 493d caf8 353d 044d 693c
000002e0: 7169 933d 1d75 d13d 9ff4 0dbd e93f d73c
000002f0: b9ec ba3c 1e27 ff3a 9ee0 ea3c 2d89 20bd
00000300: f6a7 923d 35a2 ed3c b3c3 93bd 7041 873d
00000310: 1474 ec3b 92d0 413d a2c6 34bd 710d 0ebd
00000320: a603 fd3a 63ae 883c c19d 00bc 486e 01bc
00000330: c6d2 acbc 5938 a53c ca58 a6bc 0c98 e0bb
00000340: 2abb 5f3c 56d4 f8bc 484a 063b 5233 dc3c
00000350: 205a fbbb 6cca f9bc 7bd3 223c f254 9abc
00000360: f88a 8dbc f8be 0abc dac5 c5bb 8dbc 223d
00000370: 3826 f1bb dc76 b33b d7f7 803c 1e90 3ebc
00000380: 6c71 383c 8088 e8bd c5f0 f9bd 8003 cabd
00000390: 2930 cabd c743 5b3b a60e fdbd 88ff 11be
000003a0: 3e3a 13bd f0aa efbd cac4 f4bd eae7 abbd
000003b0: 8f85 bdbd 414f 173c 2cee 6ebb 037e 93bd
000003c0: 9703 00be 74bd ccbd e949 57ba 9c9d f7bd
000003d0: 3596 a6bd a48d d3bc be7d a8bc bb82 013d
000003e0: 13b5 3ebc 1a8f 18be d8d8 c1bd 5f0e 6abd
000003f0: 4ae4 5cbd b3ef a0bc bbc8 ccbd 3b2d 81bc
-0.04493992 0.012820707 -0.017452065 0.019195234 0.04330443 -0.013888741 -0.0150316665 -0.007068229
-0.014692295 0.04463972 -0.02200316 -0.0031612685 -0.040969685 0.0025364254 0.015831217 -0.010851112
0.0155501 -0.05632467 0.047857907 0.060292315 -0.044818368 -0.011997568 0.051457103 0.036914967
0.014334137 -0.09341568 0.024827495 0.014576183 -0.10950741 -0.06825722 -0.024634922 -0.1270613
-0.07859315 -0.062725335 -0.039264876 -0.007948311 -0.07174692 0.027005024 -0.14574876 0.016413718
0.011173135 -0.046277005 0.019584872 -0.028880902 -0.02291497 0.006925244 0.013624668 -0.0025117542
-0.018230816 -0.013995373 -0.14048462 -0.15556337 -0.16837831 -0.16979624 -0.18602775 -0.12887247
-0.100915425 -0.18165071 -0.09581094 0.03694093 -0.06112918 -0.08458992 -0.061767064 -0.029037317
0.030958196 -0.09363815 -0.13130558 -0.10814703 -0.0721085 -0.13338794 -0.02929875 -0.061427023
-0.02856991 -0.07138281 -0.048161298 -0.16703714 -0.017813327 -0.029558238 -0.025187155 -0.0708913
-0.13551027 -0.026272405 -0.06827807 0.01691592 0.0087158885 0.006566399 -0.038374353 -0.042956334
0.03417948 0.02336165 0.0065207686 0.068115786 0.028727157 -0.02747503 0.0483332 -0.025577717
0.005433521 0.06131127 0.054693196 0.07270692 -0.119481064 -0.017123649 -0.08158672 -0.09809969
0.013602882 -0.034865975 -0.042494006 -0.056892827 -0.07752295 -0.08336127 -0.09679265 -0.04660204
-0.01413396 0.024620265 0.027768048 0.020505626 -0.0048628473 0.011470585 0.015109973 -0.10909074
0.02405568 0.0023292042 0.0071980595 -0.05639265 -0.03819025 0.017154297 -0.055753037 -0.029598264
0.09184199 0.09108613 -0.0055302135 -0.03581556 -0.06539087 -0.0014809306 0.08476585 -0.06556218
-0.014367597 -0.06840418 0.00039261547 -0.045936674 -0.056569632 0.034738734 0.0053459965 -0.036687437
-0.081383765 -0.03189402 -0.0071155564 -0.039054483 -0.08953699 -0.08027891 -0.068220966 -0.0647041
-0.07398928 -0.17773534 -0.10906391 0.02084068 0.08848009 0.08807509 -0.0017728785 -0.040893774
0.04071416 0.03819049 0.020965409 0.025273532 0.03849028 0.027618514 0.029574186 0.033591848
0.056665447 0.053327665 0.07952218 0.08401227 0.056177404 0.048517823 0.08586035 0.069912344
0.044154424 0.057402913 0.09134603 0.116438076 0.15769027 0.04919445 0.044426717 0.014239553
0.07197846 0.10227416 -0.034657117 0.026275592 0.022817956 0.0019466614 0.028671559 -0.03919332
0.07160942 0.02900801 -0.07215061 0.06604278 0.007215986 0.04731805 -0.044134744 -0.034680787
0.0019303455 0.016684717 -0.007850111 -0.007899828 -0.021096598 0.02016847 -0.02030601 -0.006854063
0.013655463 -0.030374687 0.0020491052 0.02687994 -0.007670656 -0.03049203 0.009938116 -0.018839333
-0.01727818 -0.008468382 -0.0060355486 0.039730597 -0.0073592924 0.0054768156 0.01574318 -0.01163104
0.011257511 -0.1135416 -0.12204126 -0.09863949 -0.09872467 0.0033457146 -0.123563096 -0.14257634
-0.035944216 -0.117025256 -0.11951597 -0.083938435 -0.0925399 0.009235204 -0.003645788 -0.07201769
-0.1250137 -0.09997073 -0.00082126126 -0.120906085 -0.081341185 -0.025824375 -0.020567771 0.031618815
-0.011639851 -0.14898339 -0.09465188 -0.05714261 -0.05392865 -0.019645547 -0.09999224 -0.015768638

conv2.bias f4 [16]
00000000: 49ca bb3d c020 6bbd cc0c d33c 660c 8f3c
00000010: 5158 a33b ed14 ec3c 70fe 06bc 899f f6bb
00000020: 1a12 bfbc 3a33 abbd ede1 b4bc dd88 ddbc
00000030: 82a1 e7bc e9c4 04bd 589b f2bb 0d4e 3d3d
0.09169442 -0.05740428 0.025762938 0.017461967 0.0049848934 0.028818572 -0.008239374 -0.0075263423
-0.023324061 -0.0835938 -0.022080386 -0.0270428 -0.028275255 -0.03241435 -0.0074037723 0.046217013

h3.weight f4 [256, 144]
00000000: 3f87 6f3c 513c 313d a419 5c3d 9161 a73d
00000010: 7414 3d3c 355a 4d3c fb3f f8bb 74d2 18be
00000020: 949d 93bc a224 ed3d 7263 e03b b603 2dbd
00000030: abf3 7b3c 5edd a93c 0b84 adbd 1143 c23c
00000040: 818a 17bd d7ad a1bd b28d 2c38 569f 84bc
00000050: a9a6 e03c 3526 543d ae90 e33d a6f8 a5bd
00000060: f5da c6bd 71fb 0d3b 22ed 823d 1682 12be
00000070: b030 abbd 0fd9 53bd 873a 07be 5a1a 463c
00000080: 66ab d33d a931 6fbd 1f38 51bc 4862 f03c
00000090: 8c17 8dbc 5880 b1bc b374 a1bd 3d0d 82bd
000000a0: 5423 eebd ada5 a33c 7f1c 66bd c5ad bd3d
000000b0: e996 91bd 68f5 fbbd 5f7f 17be bb31 c63d
000000c0: 4220 32bd e851 b03c c847 4a3d 98ae c7bc
000000d0: 99dc b1bd 7f53 0e3d 7139 303d 8326 87bd
000000e0: c709 ea3d 73fe 043c c187 07be a535 823d
000000f0: 71f6 243d 82da c7bd 1c91 e13d 4edf 5f3d
00000100: 4bc4 d93c 3d5b a1bd 16a9 d0bd e6e2 babd
00000110: 4eca 233d a692 77bc f9f2 a53d 5131 f8bb
00000120: c66f 20bd 4a28 f3bb 3ff1 f43c e173 17bd
00000130: 4a7e 2f3d 0b58 c43d 26aa ac3d 110c d4bb
00000140: 3212 f3bc 4bc6 e93d 59d0 f4bd 6bd2 95bd
00000150: 4085 c43d 19d4 203b 97a7 ac3c a7f7 633c
00000160: 6e6f fb3d d8d5 a2bc 7ca5 02be 2693 ecbd
00000170: 43c8 bfbc 2997 8abd 43ff a63b 8bb9 1a3d
00000180: 0ce1 843c 8d01 943d 29b2 f9bc a185 143d
00000190: 72f7 86bd ecf5 c6bd 3ac5 7e3d 3119 16be
000001a0: e392 1ebe 08cf f93d 8cac 823d 3bc1 5c3d
000001b0: d585 8b3d d020 5f3d 3084 6bbd eb32 7a3d
000001c0: f4a5 01bd 1b7e f43c 6ce1 af3c 2213 db38
000001d0: beb7 a93c f511 3b3d a014 093c d9cb be3d
000001e0: 5483 023e bbd9 98b9 c5b1 933d c553 5b3c
000001f0: 1106 e53b eb12 063c f135 45be c707 8abe
00000200: bdb2 d3bd 1046 c7bd 9416 08be 1673 21bd
00000210: 253e 1fbd 3650 653c e959 e63d 49db efbd
00000220: 0d9b cabd d741 273d 4a87 52be 5169 d13d
00000230: 2c5d fe3d 2f37 903d d519 273d 3a95 373d
00000240: 12b6 05bd 4533 babd f4bf b93d e6ea 443c
00000250: 078a 5b3c 5141 b93d 275e 323d 018d 88bd
00000260: bf5b 423e 235a 89bd dc7d aebd 246c 463d
00000270: fa98 c03d d898 6c3d 799b 22bc ea9d 69bd
00000280: 72af 13bd bf44 f0bd e0ac 33bd f3a7 00bd
00000290: 6973 54be f7fe a13d db3c 75bc 5e48 92bd
000002a0: 47ba f6bd d6e0 2abe 73dc d1bd 7546 a73d
000002b0: a846 32bd d3da 03bd c304 243e a050 1d3e
000002c0: ab79 723d c345 e73c b853 91bd d2c0 13be
000002d0: 9729 c43c 982a 3fbd c008 c7bd 9e88 11be
000002e0: 370e 27be d1da e6bb 022d f9bc 9062 56bd
000002f0: b632 44bd 5fc2 17bc ffc7 bbbd e573 35be
00000300: 8388 3cbd 138f 8fbd 2e39 b8bd 0fae 51bd
00000310: 7ea9 31bd b55d 37bd cb06 083c 58aa b2bc
00000320: ddbe a6bd b7c1 b63b 7f7c 613d e864 1abe
00000330: 9ed6 bb3d 9eea 983c 8cde a43d 27fd 46be
00000340: 1238 2abe 469f 1abd 374e c9bd dd87 c6bd
00000350: 65b9 22bd be76 953d 6d02 8eb9 905a ab3d
00000360: d84a f2bc c99c 923b 911a 61bd abed 22be
00000370: e134 bfbd 9f87 4ebd e054 8a3c 76d0 853c
00000380: 069f 8d3c cbe9 803d 740a 60bd fd39 8dbd
00000390: 8f98 a33d e7cf 183e 8c30 ca3d 4768 91bd
000003a0: c156 4a3b 61b1 0b3e 021e b23c 9188 913c
000003b0: 65ec 0a3d 3ca8 4a3d e11a 423d fb05 3abe
000003c0: b3a4 0e3e 53d3 9f3c fb02 4ebe 3f62 1f3e
000003d0: e870 833d c0d3 653d 2d30 983d ecff 883d
000003e0: 44bf a43b c8d5 b13b 9ba4 ff3c bf56 f6bc
000003f0: 2b42 37bc dda5 8c3d 8951 7f3d a308 8739
0.0146196475 0.043270413 0.05373539 0.08172906 0.011540521 0.012533714 -0.0075759864 -0.14924031
-0.018019475 0.11579253 0.0068477923 -0.042239867 0.015377919 0.020735439 -0.08472451 0.02371362
-0.036997322 -0.078944854 4.113996e-05 -0.016189259 0.02742322 0.05179425 0.1111158 -0.081040666
-0.097097315 0.0021664763 0.06392886 -0.14307436 -0.08358896 -0.051720675 -0.1320592 0.012091244
0.10335426 -0.05839697 -0.012769728 0.02934374 -0.017223142 -0.021667644 -0.07883587 -0.06350181
-0.11627832 0.019976461 -0.05617952 0.092616595 -0.07108862 -0.12302667 -0.14794682 0.09677454
-0.043487795 0.021523431 0.049384862 -0.024375245 -0.08684654 0.034747597 0.04302353 -0.065991424
0.11427646 0.008117306 -0.1323538 0.06357888 0.040274087 -0.09758474 0.110140055 0.05465632
0.026582858 -0.078787304 -0.101885006 -0.09125309 0.039987855 -0.015110647 0.08102984 -0.0075742383
-0.039169095 -0.0074205743 0.029900191 -0.036975745 0.042845048 0.09587105 0.08430891 -0.006471165
-0.029671762 0.114147745 -0.11953802 -0.07315525 0.09595728 0.0024540483 0.021076007 0.013914025
0.12277113 -0.01987736 -0.1275844 -0.11551504 -0.023410922 -0.06767113 0.0050963475 0.037774604
0.016220592 0.07226858 -0.030480461 0.03626025 -0.06590165 -0.097148746 0.06219981 -0.14658047
-0.1548572 0.12197691 0.06380567 0.053895216 0.06812636 0.05447465 -0.05749911 0.061083715
-0.031652406 0.029845288 0.021469794 0.000104462975 0.020717498 0.045671422 0.008366734 0.093162246
0.1274541 -0.0002915392 0.07211641 0.013386671 0.0069892486 0.008183221 -0.19258858 -0.2695906
-0.10336826 -0.0973016 -0.13289863 -0.039416395 -0.038877625 0.013996175 0.11247618 -0.11711747
-0.09892855 0.040834274 -0.20559421 0.10225166 0.12420115 0.070417754 0.04079612 0.044820048
-0.03264434 -0.0909181 0.09069815 0.012018895 0.0133996075 0.09045661 0.043546822 -0.06667519
0.18980311 -0.06706645 -0.085200995 0.048442975 0.09404178 0.05776295 -0.009924763 -0.057035364
-0.03605599 -0.11731862 -0.04386604 -0.03141017 -0.2074715 0.07909959 -0.014968122 -0.07142709
-0.12047248 -0.1668733 -0.102471255 0.081677355 -0.043524414 -0.03219111 0.16017441 0.15362787
0.059198063 0.028231507 -0.07096046 -0.14429024 0.023945613 -0.04667148 -0.09718466 -0.14212272
-0.16314016 -0.007045128 -0.03041697 -0.05234009 -0.047899924 -0.00926265 -0.091690056 -0.17719992
-0.046028625 -0.07009711 -0.08995281 -0.051191386 -0.04337453 -0.0447671 0.008302401 -0.021809742
-0.08141873 0.005577292 0.05505037 -0.15077555 0.09171794 0.018666562 0.0805026 -0.19432507
-0.16622952 -0.03774955 -0.098293714 -0.096938826 -0.039727587 0.07298039 -0.00027086158 0.08366883
-0.029576704 0.0044742567 -0.054956976 -0.15910976 -0.09336258 -0.050422307 0.016886175 0.016334753
0.017287742 0.062945925 -0.05469747 -0.06895826 0.079880826 0.14923058 0.09872541 -0.070999674
0.0030874463 0.13641883 0.021742824 0.017765315 0.03391685 0.049476847 0.047388915 -0.18166344
0.13930015 0.019509947 -0.20118324 0.15564822 0.064180195 0.056110144 0.07431064 0.06689438
0.0050276835 0.005427096 0.03120642 -0.03007066 -0.011185209 0.068675734 0.062333617 0.0002575564

h3.bias f4 [256]
00000000: deaf 88bd d462 fcbd e318 f1bd f652 7d3c
00000010: 42df 0abe 8a27 853e 375f 673d 44cb bfbd
00000020: 7e59 78bb de65 273e d9ab 353c e7c4 4d3c
00000030: 53f8 0cbd bd0d 6bbc d7ec 9b3c f563 f4bd
00000040: 92b8 6d3b f318 78bd 4636 fdbd a4c3 0b3e
00000050: baa8 f53d f539 c33d 9e3d bbbd e3aa a33c
00000060: 8aba 00bd 50d4 f7bd 3ca0 eebc 070f 3a3d
00000070: 1eb0 dd3d 0108 b43b e6f8 9a3c 191a 1d3d
00000080: 4523 b6bd f1e1 9bbd d891 83bd 7ca6 ff3d
00000090: 19e5 54bd d2fb 4b3e 6f6e edbc 19f2 8f3d
000000a0: 0159 ea3b e63c 07bb af8d 09be 8774 b3bc
000000b0: f976 283e d3a9 72bd 6df5 a13d fe5a d03d
000000c0: 9830 8bbd 379c 0ebe 367b 943d bb3e b6bd
000000d0: fac6 84bd e151 c0bd 7f69 f8bd 5f7a 713d
000000e0: 2090 94bd 71a0 31bd b896 3ebd d01b fdbc
000000f0: c3d4 ec3c 748a 63bd 8111 5b3d 6817 b0bb
00000100: 61ae be3c 35fd 5fbd 18a4 38bd b438 103d
00000110: 4e49 41bc 61e2 ba3d 8550 b5bb 223c 4c3d
00000120: d84d 703e 8bea e33c 3007 9d3c c856 103b
00000130: 6009 e03c fd89 b8bd 220c 173d f541 2ebd
00000140: fdec cfbc e5a3 34bc e1f1 f1bd 1dc4 ea3c
00000150: ef35 ed3d dc39 87bc 3550 2d3d 1a91 fa3d
00000160: fcd7 c33d 2331 2ebd 175d 833d 61c1 febb
00000170: 51d0 103d a284 54bd 5ee5 35bd a040 6d3c
00000180: 440f e73d c94a 8bbd 0449 b4bd 3105 16bd
00000190: 08f9 17bd 227b ec3c f322 573d f981 2bbd
000001a0: 56bd 243d 7448 0a3e 5379 a83d 13d5 32bd
000001b0: 0aa9 3a3d cc87 3fbd 98df 123e 373e 653d
000001c0: a52d b93d 676f 0b3d cdb0 05bd aa5e 823d
000001d0: 76e4 e03c 035a 7dbd a995 93bc 529a 75bc
000001e0: 9254 94bc 4f36 f73d 9cab 023c 85fa 6cbd
000001f0: 7616 903d 0714 dfbc 2229 e3bc b9bc 05bd
00000200: 9e9f 7dbb 1b9b 713d a7fc ee3d 77ea b1bd
00000210: 241e 19be 30c2 ad3b f7cd 053e ae8a a13d
00000220: 3db2 2a3d 9f08 463d 1e15 3c3d f989 4d3c
00000230: fbf3 f1bc cae5 5fbd 8215 e43d 3a9c bbbd
00000240: 270d 80bc 4ee7 a8bd 983b cabd 1315 b33b
00000250: 0e55 02bd c241 a1bc db39 0fbe a9fc 9d3c
00000260: 1d9d 15bd 7cf7 953c 2ce1 1bbd 23a3 263d
00000270: 98d5 a33d 8678 1f3e e08c 923c 4e1a 5fbc
00000280: c5c1 0a39 c92d c43c f1d5 c13c 8815 f9bc
00000290: fa17 d6bd 6465 97bd fadf 72bc 1673 4abd
000002a0: 0b03 743d 7381 0e3c 7977 203e 6e07 bdbd
000002b0: 8c04 6e3e 9d57 743d 7673 85bd d1e4 8fbc
000002c0: 2094 07be 5adb 13be 110c 083e fe4b cbbb
000002d0: f7b5 d13d d259 2f3d e2b1 fbbd c93a f0bd
000002e0: a5e8 94bc e271 d9bc 26e3 443d fa4f ce3d
000002f0: b2cb d53c e5b6 ed3d b6a5 5abd a58a 56bd
00000300: 5274 013d ebe3 073e ebcf 453d 1753 403d
00000310: d438 59bc dc74 0f3d 68b6 adbc d6ca 84bc
00000320: 0f5d 98bd e0b9 733d bfb1 87bd 412f 523c
00000330: af94 fbbc b879 a7bd f8c8 113d 1bd5 b23c
00000340: 0dd4 743c 5559 10be e394 7cbb c86f 9dbd
00000350: 87f9 48bd c74e 063d 2c74 c13e 403f 773d
00000360: a80e ef3d 8c3e b03d 15c7 e33c 9167 f5bc
00000370: c800 bebc 1992 063d eb27 a53d ca89 cf3d
00000380: b268 f8bc 0b78 233d 1234 2abc a04b e7bd
00000390: 9b84 8d3d 67ca 63bd 8a06 103e 6412 40bc
000003a0: e8dd 983c a755 553d fac9 53bd c722 81bd
000003b0: a892 bebd 7b01 66bd 6848 4cbd e0ef b33d
000003c0: 04af 6c3d e022 0abd 9e28 b4bc b0d0 3e3b
000003d0: a124 eebd 6a7d 103e aa32 383d 9c59 8bbd
000003e0: 85c9 e03c 87b2 1e3d f7ee 43bc c445 9539
000003f0: 8045 103c d772 21bd f3a3 a0bc a4a1 d0bd
-0.06674169 -0.123235375 -0.11772325 0.015461674 -0.13561729 0.26006728 0.05648729 -0.09364942
-0.0037895138 0.16347453 0.011088335 0.012559152 -0.034416508 -0.014346537 0.019033832 -0.11933128
0.0036273343 -0.06057067 -0.123638675 0.1364885 0.11995073 0.09532539 -0.09142612 0.019978946
-0.031427898 -0.12101042 -0.02912914 0.045424487 0.10824607 0.005494118 0.018917512 0.038354967
-0.08893446 -0.07611454 -0.06424302 0.12482926 -0.051976297 0.1992028 -0.028983323 0.07028598
0.0071517234 -0.0020635664 -0.13432954 -0.02190615 0.16451634 -0.05924399 0.079081394 0.101736054
-0.06796378 -0.13926779 0.07250063 -0.08898684 -0.06483264 -0.09390617 -0.12129497 0.058954593
-0.07254052 -0.0433659 -0.046530455 -0.030897051 0.028910046 -0.05555196 0.05348349 -0.005373884
0.02327651 -0.054684836 -0.045078367 0.035210326 -0.011797262 0.091252096 -0.0055332803 0.049862035
0.23467195 0.0278218 0.019168466 0.0022024382 0.02734822 -0.09010694 0.036876805 -0.04254337
-0.02538156 -0.011025404 -0.11813713 0.028657967 0.11582553 -0.016507082 0.04231282 0.12234707
0.0956268 -0.04252733 0.0641424 -0.0077745174 0.035354916 -0.0518843 -0.044408195 0.01448074
0.112822086 -0.068013735 -0.08802989 -0.036626045 -0.03710273 0.028867308 0.052523565 -0.041872
0.040219627 0.13504201 0.08226266 -0.043660235 0.045571364 -0.046760365 0.14343107 0.055967536
0.09041909 0.03404179 -0.032639313 0.06365712 0.027452689 -0.06185342 -0.0180157 -0.014990406
-0.018106733 0.120709054 0.007975485 -0.0578561 0.07035534 -0.02723123 -0.027729575 -0.032650683
-0.0038699876 0.05898581 0.11669283 -0.08687299 -0.14952904 0.00530269 0.1306685 0.07887779
0.041673888 0.048348065 0.045918576 0.012545102 -0.029535284 -0.054662503 0.11136915 -0.09160657
-0.015631272 -0.08247243 -0.09874648 0.0054651587 -0.031819396 -0.019684676 -0.13986914 0.019285517
-0.036526788 0.018306486 -0.038056538 0.040682923 0.07999724 0.1557332 0.01788944 -0.013617111
0.0001323289 0.023947613 0.023661586 -0.030405775 -0.10453792 -0.073923856 -0.014823908 -0.04942616
0.059573215 0.008697855 0.15670575 -0.09229933 0.23243922 0.059653867 -0.06516163 -0.017565163
-0.13240099 -0.14439145 0.13285853 -0.0062041273 0.10239785 0.04281027 -0.12289788 -0.117299624
-0.01817734 -0.026543561 0.048068188 0.10073848 0.026098106 0.1160715 -0.05338069 -0.052378315
0.031605072 0.13270538 0.04829399 0.04695424 -0.013258178 0.035023555 -0.021205142 -0.016210001
-0.074396245 0.059503436 -0.06625699 0.012828649 -0.030710546 -0.08177513 0.03559205 0.021830132
0.014943135 -0.14096577 -0.0038540892 -0.07687336 -0.049066093 0.03278997 0.37783945 0.060363054
0.11672717 0.0860568 0.02780489 -0.02995661 -0.023193732 0.032854173 0.080642544 0.10133703
-0.03032336 0.039909404 -0.010388391 -0.11293721 0.06910058 -0.055612948 0.14064994 -0.011723135
0.0186605 0.052083638 -0.05170629 -0.063054614 -0.09305316 -0.056153756 -0.04987374 0.08785987
0.057784095 -0.033724666 -0.021992024 0.0029116087 -0.1162808 0.14110342 0.044970192 -0.06804201
0.027439842 0.038744476 -0.011958829 0.00028471474 0.008805633 -0.03941616 -0.019609427 -0.101870805

output_layer.weight f4 [10, 256]
00000000: 801b 1bbe bdf9 c9bd 3623 2d3c 40ca df3c
00000010: 6ad4 c9bd b7ed 5bbe 0daf 9abd f8d8 da3a
00000020: c704 a73c b179 fa3d a076 2a3d 767e d1bd
00000030: 8905 28be 0223 5bbd dcd2 953d 8d2f cfbd
00000040: 302e 263d 43b4 053d b540 e8bd a413 5bbe
00000050: 7339 23be 7e34 b1bd 4c43 6b3d 532c b33d
00000060: c6c0 c7bb 11ca b73d 7cf0 b0bc 37b5 b63c
00000070: a46f ecbd 4e9a 59bc bffe 02bd 2537 9a3d
00000080: aa6e 79bd 9c06 8bbd 40ff 123c 1f5f f83d
00000090: c1eb c83d 5c31 34be 4ccd 463e 2468 7f3d
000000a0: 67cd 8a3d fdf5 223e ee84 153d e27d 863b
000000b0: 3c86 c3bd 80d4 f9bd 68e5 983d c694 363e
000000c0: d02e 133d 8137 753d d4b3 363d d26e c23d
000000d0: 657d 903a 377b 5b3d cd62 833d b35f bebb
000000e0: c991 0abe 2069 f03b 27de 173d 5ebc 363d
000000f0: e96e 0abe 7fdb fe3c 4e4e 21be f69a b63c
00000100: f3cd e8bc 46c2 b3bd 86af aebd bb24 a3bd
00000110: 1e1c 8bbc 689a b9bd 8a0f bcbd 9dbd 9c3c
00000120: 957b 23be ffbc 8e3d bbee a13d 81ed c43c
00000130: cda4 e33d cda6 653d 75b5 f83c 4082 a2bc
00000140: 4611 82bd f216 cbbd 872b fdbc 2fce 2bbd
00000150: 6805 fbbc 1886 f13d 4573 48bd d3ec 18be
00000160: 6835 4fbc 0df4 a6bd d223 e9bd 4a7d 90bc
00000170: 1b33 133d 663e 08be 9e9b 283d e618 133d
00000180: 569d 8d3c c290 bf3c f19c 043b 0962 bdbd
00000190: 4e12 083d cd56 e63c 1084 dd3c 7989 aabd
000001a0: 97ad 13bd 5635 e43d 0155 91bd a04b 663c
000001b0: c6e7 f03b 89a0 50bc 8ed4 10be cbc4 39bd
000001c0: 9209 4b3d 7872 d3bb 441a 4bbb 4ebf d8bd
000001d0: 0456 27bd 9878 6e3d 2eae 5e3d 8876 68bd
000001e0: 0df5 efbd f444 3fbe d31a dd3c ee3b 0bbd
000001f0: d1ab 83bd 6494 f6bb cede 393d e226 3d3d
00000200: 7473 2bbe 5107 cbbd 800d d3bb 8bb8 ed3c
00000210: a01b c9bc 7159 ce3d bdbd 0cbe 0e0a 15bd
00000220: 18c0 a13d 6d0f e8bd 330b 2cbd c7b2 753d
00000230: b55a 0bbc cea7 2f3a 273d c33d 2ea1 8abc
00000240: 2c49 dbbd 163f ab3c 64ec 553d 6c5d d53d
00000250: 23e7 8c3d 8cdf 0a3c 351b 0dbd 8f17 be3b
00000260: 1b9e 8dbd 87e6 ae3c 6596 e03c 2d4a 2bbe
00000270: 79da 993d 04c1 d4bd 0dbb 47bd c058 d8bd
00000280: e841 043b 3559 023c 037e a23c 5c9b 263c
00000290: 4728 803d e1b7 cfbd 0ed0 c73c 99bc a53d
000002a0: 4c73 01be 28d3 4dbc a418 693d 425e 0abe
000002b0: ab36 063d f59e 12be af65 d7bd 8aca b2bd
000002c0: 4573 1fbd 9750 c8bb ce2c b4bd 16bb a6bd
000002d0: 6f13 83bc 04a0 1e3c f15c e9bd 3d6e d53c
000002e0: c0d4 f73d bb41 80bd 3e53 1c3d 0a52 64be
000002f0: 5761 46be be85 343c 6118 dcbc bd5e 76bc
00000300: eb85 9bbd 3a21 02bd 76f1 e0bc 72f8 63bd
00000310: 3a25 943d d3f6 c43d 73e9 60bd 9363 f0bd
00000320: 8a80 8d3c 252b f1bd 919c eebd d554 653d
00000330: ac2b ef3c 82ad cbbd 028d 05bd 34c0 14be
00000340: e9aa 463d aaa6 933c 26d1 a23c 667f 68bd
00000350: 8428 d9bd 57a3 493d b31e 7ebe e1c9 ce3d
00000360: bad5 8fbd 6822 9abd 60bd af3d 9641 023e
00000370: 529e b9bc 26db 1cbd b80e ffbd bdf4 02bc
00000380: 4996 9b3d c833 843d e28c 643d 1c1d a33d
00000390: 6405 4e3d 2e5d c8bd 1ecc 063e 98d7 f63b
000003a0: e6d8 a33d 5e36 d5bd 009a e33d 87a5 d5bd
000003b0: a49d 69bd 241a 82bd cc10 debd 54f7 7d3d
000003c0: ece7 f3bd 84fd c1bd ff5f 983d a1dd 93bd
000003d0: 8277 163d 1c5e ab3c 0439 1cbd 270e eebc
000003e0: 103a 4cbe 3b74 d3bc 68ea 87bd 0cd9 93bd
000003f0: 3af0 85bb 7527 a9bd b797 a9bd f088 e63d
-0.15147209 -0.09862087 0.010567477 0.02731812 -0.09854968 -0.214774 -0.075529195 0.0016696742
0.02038802 0.12230242 0.041617036 -0.10229199 -0.16408361 -0.053500183 0.07315609 -0.101164915
0.04057139 0.032642614 -0.11340467 -0.21394211 -0.15939884 -0.0865259 0.057437226 0.087486885
-0.0060959784 0.08974088 -0.021599047 0.022303207 -0.11544731 -0.013281418 -0.031981226 0.07530049
-0.060896553 -0.0678837 0.008971989 0.12127518 0.098105915 -0.17596954 0.19414252 0.062355176
0.06777459 0.1591415 0.036503725 0.004104362 -0.095470876 -0.12198734 0.07465631 0.1783019
0.035933316 0.059867386 0.04460509 0.094937935 0.0011023699 0.053584304 0.06415329 -0.005809748
-0.13532175 0.0073367506 0.037077095 0.044613235 -0.13518871 0.031110523 -0.15752527 0.022290688
-0.028418517 -0.08777289 -0.08529572 -0.0796599 -0.01698118 -0.09062654 -0.09182651 0.019133383
-0.15965112 0.06969642 0.07906862 0.024039032 0.11115418 0.056067277 0.030359963 -0.019837499
-0.06350951 -0.09916486 -0.030904545 -0.04194468 -0.030642226 0.117931545 -0.048938055 -0.14934091
-0.01264701 -0.08152018 -0.11383785 -0.017637867 0.03593741 -0.13305053 0.041164033 0.035912417
0.017286938 0.023384456 0.0020235146 -0.09247214 0.03322058 0.028117562 0.027040511 -0.08327002
-0.03605422 0.111429855 -0.07096291 0.014056116 0.0073518483 -0.012733587 -0.14143583 -0.045353692
0.049569674 -0.0064528547 -0.0030990997 -0.105833635 -0.040853515 0.058220476 0.05436533 -0.056753665
-0.117166616 -0.18678647 0.02699033 -0.0339927 -0.06429256 -0.0075250138 0.0453785 0.04617966
-0.1674326 -0.09913505 -0.0064408183 0.029018661 -0.024549305 0.10075653 -0.13744254 -0.036386542
0.07897967 -0.11331067 -0.042002868 0.05998495 -0.008505513 0.0006700725 0.09533148 -0.01692256
-0.10707316 0.020904105 0.052227393 0.104182094 0.06880023 0.008476149 -0.034449775 0.0058011482
-0.06914922 0.021350158 0.027415464 -0.16727515 0.075123735 -0.10388377 -0.04876237 -0.10563803
0.0020180885 0.007955839 0.019835478 0.0101688765 0.06257682 -0.10142494 0.0243912 0.08092613
-0.12641639 -0.012562551 0.056908265 -0.13512519 0.03276698 -0.1431845 -0.105174415 -0.087300375
-0.03892829 -0.0061131227 -0.08797608 -0.081411526 -0.016000478 0.009681705 -0.1139468 0.026053542
0.12101126 -0.06262537 0.038165323 -0.2229692 -0.1937307 0.011018215 -0.026867094 -0.015037236
-0.07593902 -0.03176997 -0.027458888 -0.055656858 0.07233663 0.096173905 -0.054910135 -0.11737742
0.017273206 -0.11775807 -0.116509564 0.055989105 0.029195629 -0.09945203 -0.03260518 -0.14526445
0.048502836 0.018023808 0.01987512 -0.05676212 -0.10603431 0.04922804 -0.24816398 0.10097099
-0.07023187 -0.07526094 0.08581042 0.12720332 -0.0226585 -0.038294934 -0.12453979 -0.0079929205
0.07597024 0.06455189 0.05579842 0.079645365 0.05029811 -0.097833976 0.13163802 0.007533025
0.080003545 -0.1041076 0.111133575 -0.104319625 -0.057035103 -0.06352642 -0.108430475 0.06200345
-0.1190947 -0.094721824 0.07440185 -0.07220007 0.036735065 0.020918898 -0.03814031 -0.029059483
-0.19944024 -0.025812259 -0.06636506 -0.07219133 -0.004087475 -0.08259479 -0.082808904 0.112565875

output_layer.bias f4 [10]
00000000: ac2c b6ba 5936 063e 6f85 17bd 8470 4abc
00000010: 4a19 aa3c 3c4e a9bc 11bf aebd 1216 c2bd
00000020: 0481 9d3c 3ba6 8f3b
-0.0013898811 0.1310667 -0.036992487 -0.012355927 0.020764012 -0.020667188 -0.08532537 -0.09476866
0.019226559 0.00438383
