tut1-model_one.pt (torch, 891982 bytes, 6 tensors)

input_layer.weight f4 [250, 784]
00000000: 5351 0d3d 3cc1 973d 86df 873d c594 8c3c
00000010: 34f8 8c3d 8869 b93c 76e1 213d 17fb 8b3d
00000020: 286d 9a3d 5f45 1a3d 342b 313d 4954 063d
00000030: 1742 113d c36f c93c b061 d8bc 264d bbbc
00000040: 0b21 b73b f4c2 143d f48e 2b3d 4fd4 d23c
00000050: f75b bb3b 291b 173d 86b0 50bb ad76 833b
00000060: 658c 783d 4f86 123d 2354 8e3c 318d 593c
00000070: 787a 9e3d 9d4d 243c 7e81 5a3d 888b 533d
00000080: e2d1 533d 371c 7e3c ac19 8d3c d44e 0c3d
00000090: 933d 413d 6f84 ca3c 81e4 92bb e59d 9fbc
000000a0: ef0c 91bd 953d 3ebd c31e 13bd 7a86 febd
000000b0: 7d10 4bbd f633 0ebd ffe7 3dbd aaa1 78bc
000000c0: 77c1 7abc 2ab0 05bd 1e02 3ab9 8edd 213d
000000d0: 94e4 773d eb6a 463d d1c6 913d 6b23 e03c
000000e0: bcd2 893d 8962 413d dd8e 873c 4f1a a43d
000000f0: 79b4 2a3d fa35 123b 1f9b 2d3d 444a af3c
00000100: 8c32 a43b d2a3 51bd 0214 58bd ae5d 18bd
00000110: 85af 79bd 7ce6 bdbd 63cd a9bd ac7b 34bd
00000120: adc4 abbd 77ef 94bc 629b 09be d801 debd
00000130: 8b80 04be 8d5e dbbd 5c53 2dbb e01e debc
00000140: 20fe 163d 8354 f03b 7b98 873c d8d7 dc3c
00000150: 28d3 683c 03fa 683c a9ec 923c 9913 113c
00000160: f128 8c3b 251f 443d bcc5 5a3c 9a8e eabc
00000170: c048 18bd 613e 9abd cd2f 22be b5f5 4fbe
00000180: 5535 59be 4317 f1bd 2333 bebd 9114 6abd
00000190: ba0e 09be 6db8 33be 6658 1abe 81fb 80be
000001a0: f964 56be 8d11 a3bd a2b1 ddbc b39a bcba
000001b0: d218 e8bc ecf2 b9bb fb9e ab3c 4311 2aba
000001c0: b7f7 873d 7b82 463d 0050 953c e2b8 7d3c
000001d0: 8739 993c 090c d8bc 7f50 45bd 8c50 2ab9
000001e0: f350 b6bd d5e6 19be be24 5cbe ea6f 85be
000001f0: 4073 66be fcc6 47be 8a2a 45be 1f6a 2dbe
00000200: fd48 40be 1dbc 38be 52a3 fabd 33a6 c2bd
00000210: 50b7 b1bd 8c5c a8bd 9dad 2e3c e5b7 1d3d
00000220: b3b0 183c 621f 433d 74d4 5ebc d12c 443c
00000230: 0535 623d 6b82 9e3d 6457 093d 9bd0 4d3d
00000240: b1e2 3dbc e6ed c9bc 48a1 a8bd b3f9 9abd
00000250: 3954 efbd 496d 1fbe a00a 87be 1ae5 86be
00000260: c375 46be b2ed 77be 2558 0fbe 02c1 c5bd
00000270: ad71 b7bd 1625 4fbd 66a3 5abd ce63 50bd
00000280: cb48 8fbd c07c 68bc 9133 a33c d414 a73c
00000290: c965 8a3d 4371 893d f8a6 a73d 5b88 4c3c
000002a0: eed6 1b3d 6288 143d bad5 7f3d d78f 03bc
000002b0: 84a6 79bc b101 0ebd 1fd3 87bd 1485 10be
000002c0: 844d 25be 3632 86be 63f7 b0be f2ca b3be
000002d0: a015 6ebe 2453 32be f744 c5bd 9d97 6bbd
000002e0: 03af df3b 77fb 6fbd df17 a8bc 3a6e 78bd
000002f0: 8c4e 62bc 594b 39bb 6301 903d aea2 b43d
00000300: bd16 503e 7b34 143e 5957 373d 779b 4f3d
00000310: d4a0 8b3d 1f8c 183d e686 843d 45f1 b43c
00000320: 9eb7 2fbd 9e95 70bd 4059 94bd 6494 32be
00000330: aa15 69be 42c5 afbe 36d7 cfbe a7f3 75be
00000340: 3a1a d9bd ae1c afbc 0ed8 e8bc 5c1b 853c
00000350: 8ccf 96bd d429 4dbd 7c64 6cbd 5299 4abc
00000360: 1511 4dbb ccbe 90bd 322d 12bd 9e48 f03c
00000370: 32a6 223e a496 083e 083b 923d 4d6d 543d
00000380: 7820 263d 6fd5 2f3d c78f 253d 5717 55bd
00000390: 0d0c 67bd 6d5a cabd 922b ddbd 1083 38be
000003a0: 5bed 92be 809d d3be 3820 92be 25b9 30be
000003b0: 6608 41bd 5fde 853c ef51 113d 5ef2 14bc
000003c0: d8db 83bd faec 5abd 9913 c43c 9950 b23c
000003d0: d821 8f3d ac2a 23bd 53fa 92bd f8a2 2cbb
000003e0: 5370 1fbd 3331 b73c 24a9 1b3e 02a6 5e3d
000003f0: 4459 5c3b eee1 ff3c 9975 61bc 666f 32bd
0.034501385 0.074099034 0.066344306 0.017160783 0.068832785 0.022633329 0.039521657 0.06835001
0.07540351 0.037663814 0.043254092 0.032795224 0.03546342 0.024589425 -0.026413769 -0.022863936
0.005588656 0.036318734 0.041884378 0.025736002 0.00571775 0.036891136 -0.0031843497 0.00401195
0.060680766 0.035772618 0.017374104 0.013278292 0.07738203 0.01002827 0.05334615 0.05164674
0.05171383 0.015509657 0.017224155 0.034254864 0.047177862 0.024721352 -0.004482806 -0.01948447
-0.07082545 -0.046445448 -0.03591801 -0.12427993 -0.04957627 -0.034717523 -0.046363827 -0.0151752625
-0.015304915 -0.032638706 -0.00017739131 0.03951793 0.060520723 0.04844181 0.07117999 0.027360639
0.067296475 0.04721311 0.016547615 0.080128305 0.04167602 0.0022310005 0.042384263 0.021397717
0.0050109085 -0.05118162 -0.052753456 -0.037198715 -0.060958404 -0.09272477 -0.082911275 -0.044063255
-0.08387122 -0.018180592 -0.1343818 -0.108401954 -0.1293966 -0.107113935 -0.002644739 -0.027114332
0.036863446 0.0073342933 0.0165522 0.026958391 0.0142105 0.014219764 0.017935114 0.00885477
0.0042773415 0.047881264 0.013352808 -0.02863245 -0.037178755 -0.07531429 -0.15838547 -0.20308574
-0.21211751 -0.11772015 -0.09287097 -0.05714852 -0.13384524 -0.17550822 -0.15072784 -0.25191882
-0.20936956 -0.07962332 -0.027062241 -0.0014389366 -0.028332148 -0.0056747105 0.020949831 -0.00064875575
0.06639045 0.04846428 0.018226624 0.015485974 0.018704189 -0.026372926 -0.04817247 -0.0001624247
-0.089021586 -0.15029462 -0.21498391 -0.26061946 -0.22504902 -0.195095 -0.19254509 -0.16935013
-0.18777843 -0.1804051 -0.12238182 -0.09504356 -0.08677542 -0.08220777 0.01066151 0.038505454
0.009319472 0.04763735 -0.013600457 0.011973576 0.055226345 0.07739719 0.033530608 0.05024777
-0.011589692 -0.024649572 -0.08233887 -0.075671576 -0.11685986 -0.15569033 -0.26375294 -0.26346666
-0.1938086 -0.24211767 -0.13998468 -0.09655954 -0.08957229 -0.050572477 -0.053378485 -0.05087643
-0.06996306 -0.014189899 0.01992205 0.020395674 0.06757695 0.06711056 0.08186144 0.012483682
0.03804677 0.036262877 0.062459685 -0.0080299 -0.015237454 -0.03466958 -0.06632065 -0.14113265
-0.16142851 -0.26210183 -0.3456374 -0.35115772 -0.23250437 -0.17414528 -0.096322946 -0.057517637
0.006826283 -0.058589425 -0.020519195 -0.060651995 -0.013812672 -0.002827367 0.070315145 0.08820091
0.20321174 0.14473145 0.044761036 0.050685372 0.06817785 0.037243005 0.06471042 0.022087703
-0.04289972 -0.058736436 -0.072435856 -0.17439419 -0.2276217 -0.34330183 -0.4059388 -0.24018727
-0.106007054 -0.02137598 -0.028423335 0.016248398 -0.07363805 -0.05008872 -0.057713017 -0.012365656
-0.00312907 -0.070676416 -0.035687633 0.029331502 0.15883711 0.13338715 0.071401656 0.05186205
0.04055831 0.042928156 0.04042032 -0.05202421 -0.056407977 -0.098805286 -0.10799326 -0.18018746
-0.28696713 -0.413311 -0.28540206 -0.17258127 -0.04712715 0.016341386 0.03547853 -0.009090988
-0.06438416 -0.053448655 0.023935126 0.021766948 0.06988877 -0.039835617 -0.07176652 -0.0026342254
-0.03892548 0.022362327 0.15201241 0.054357536 0.0033622542 0.031235661 -0.013760948 -0.04356327

input_layer.bias f4 [250]
00000000: bc33 13bd 135a cabc 0742 a6bd 8c92 9ebd
00000010: 410b aabc 2c4d f8bc 72c5 33bc 4145 2dbd
00000020: c305 cbbd 4bf2 13bd b665 e1bc f676 b1bc
00000030: 4a50 263d 6d50 abbd 7358 6abd e990 3ebb
00000040: e509 de3c 3d22 92bd a851 aebd 5c18 e5bc
00000050: fb29 1c3b fb14 40bc b4db ebbc 9727 a8bc
00000060: c991 bf3c 82e3 5cbd fec7 babc 8977 edbc
00000070: d474 c9bc 9828 76bc 90c8 49bd 5424 d1bc
00000080: a887 0f3d b2ca 1bbd c0d6 9f3a b031 de3c
00000090: cfc5 b7bb 2cbd c9bd 0063 72bd 89ee 7fbc
000000a0: d91e 16bd d809 7ebd a483 9b3c 1da1 06bd
000000b0: 4e4e 1c3b 159c 48bc b1c1 cbbc e77d 8fbd
000000c0: 89c4 97bd 5231 cbbc ef3d e9bc fe37 a2bc
000000d0: 333c dbbc 27af 2fbd 8d51 a73b 8a4b 82bd
000000e0: daf0 b13c 5b90 51bd 3492 58bc 0cad 66bd
000000f0: b9f2 f4bc 86a1 7abd e6af 49bd d9a8 d0bc
00000100: d56e 34bd 5a5e 91bd 3467 8bbc 3a2f 62bd
00000110: 326d 31bd fc2a ba3c a093 65bc 7435 56bd
00000120: ff3c 63bd 7a2c 843c c60c 59bd c258 3bbd
00000130: f796 2e3b bee9 b7bd 2620 6cbc ef62 1dbd
00000140: 9a6a a13c 5d02 31bd c683 903c a094 f1bb
00000150: a928 303c 29de 2ebc 5b1d 4abd d547 52bd
00000160: a6ca 893a 935f 353d fed4 1fbd 4815 30bd
00000170: fe4c bdbc acaf 6fbd 98cc abbc 3dd4 42bd
00000180: b052 5f3d 9523 2dbc 4b5a f93c c426 99bd
00000190: 3d8b 623c 147d 28bd 9cdf 93bc d9b8 92bd
000001a0: a412 453c 4da3 01bd 6d1b 87bc fbaf adbc
000001b0: 820c 14bc d360 00bc 8857 6fbd 305f 4cbd
000001c0: 6bb4 9bb9 ed6c 68bd d2f5 a9bc 7e5c 973d
000001d0: d55e 2bbd dc91 91bd 1a18 8fbb eaa0 4ebd
000001e0: 2ee9 003c 4577 9a3b e618 013d 299e e7bc
000001f0: ae10 993a be20 09bc fcd7 c6bc ce43 17bd
00000200: 8a46 1abd 7a23 30bd 2329 3abd 9ba1 a7bc
00000210: 5b59 62bc f000 6d3c 2668 193c c5cd 89bc
00000220: 1f44 12bd dd74 753c 5add 343d 701f 1fbd
00000230: 141f 93bd 7d26 d73a 4a35 40bd 3ab6 94bd
00000240: 9166 11bd a84f dfbc ddef 40bd 2ce0 84bd
00000250: 28a3 42bd 893b 20bd cfc2 dfbc 2ebc dbbc
00000260: 3119 6fbd fdcf 78bb a864 36bd 3a5e 20bb
00000270: be19 893b 4738 22bc 11f1 b6bb 8794 86bc
00000280: 7b8d 3fbd fb8c da3c e8f1 2abd 328f cabc
00000290: ecbf 3db9 4016 4cbd 3606 efbc e331 a3bd
000002a0: 8a2e 8c3b 5eeb 5ebd d2e8 65bd ff0f 71bd
000002b0: fd15 1dbb 8576 90bd cf84 4e3c 0ebd adbc
000002c0: 025c 23bd 15fb 34bd 2c2a 48bd 37bd 58bd
000002d0: f309 4f3c ef78 06bc c855 96bd b437 00bd
000002e0: 43de 82bd e8ef 75bd 942e 65bc b398 623c
000002f0: d59d b4bd e834 84bc 9731 09bd a0a1 a13c
00000300: ef0f a6bd a8c9 75bd 8d5d e6bb ca8f 1dbd
00000310: 7b80 0ebd 1a5e c7bd 75d2 10bd d4cb 193d
00000320: 66c4 c4b9 32b5 1cbc 4dc9 49bd 34ff 8e3b
00000330: ed72 ac3b 721e 06bd a522 8ebd b6f0 81bd
00000340: 5f1b 03bd c8ed 6cbd 26b7 7abd 18e7 823a
00000350: 633e 493c 1890 3e3c 3dc8 46bd e4ad e8bc
00000360: be6c 6d3c a5cc 84bd 5991 3bbd c31a 2abc
00000370: 1e47 423a 6a62 03bd e793 b43c 56df 4bbc
00000380: c214 11bc 1fff cfbd a1e1 45bd ccbd ccbc
00000390: ac99 70bd b1b1 243d b7a6 cbbc d8a0 88bd
000003a0: 9f2e bdbc a3dc 453c e109 1ebd 2270 b9bc
000003b0: 2afa 4dbd 2646 773c 2c9a eebc e40c 20bd
000003c0: da3d 83bd 725b 09bd df56 343c 2b6f 94bd
000003d0: 0990 c03d 8f97 803c ed8a 013d 3c5f 32bd
000003e0: 31c4 96bc 0db3 38bd
-0.03593801 -0.024701154 -0.081180625 -0.07742795 -0.02075732 -0.030310236 -0.010972368 -0.042302374
-0.09913208 -0.03611974 -0.02751432 -0.02166317 0.040603913 -0.083649494 -0.057213258 -0.0029078072
0.027104327 -0.07135437 -0.085116684 -0.027965717 0.0023828733 -0.011723752 -0.028791286 -0.02052669
0.023384945 -0.053927906 -0.022800442 -0.028987663 -0.02459184 -0.015024327 -0.049263537 -0.025530018
0.03504148 -0.038035102 0.0012194738 0.027123302 -0.0056082974 -0.09850535 -0.059176445 -0.015620836
-0.036650512 -0.062021106 0.01898367 -0.032868493 0.0023850384 -0.012244244 -0.024872633 -0.07006436
-0.07410533 -0.024803791 -0.028471915 -0.01980209 -0.026762104 -0.042891648 0.005106157 -0.06362064
0.021721292 -0.05116306 -0.013218451 -0.056317374 -0.029900895 -0.061189197 -0.049240015 -0.025471138
-0.04405101 -0.07098074 -0.017016985 -0.05522082 -0.043317027 0.022725575 -0.014012247 -0.05229707
-0.055478092 0.01613449 -0.052990697 -0.045738943 0.0026640275 -0.0898013 -0.014411962 -0.03842443
0.019704152 -0.043215144 0.01764096 -0.007372454 0.010751882 -0.010673084 -0.0493444 -0.051338036
0.0010512664 0.0442806 -0.039021485 -0.042989045 -0.023108002 -0.058517143 -0.020971581 -0.047565687
0.054522216 -0.010567565 0.030438563 -0.07478097 0.013827142 -0.04113491 -0.018050961 -0.07164163
0.01202837 -0.031649876 -0.01649257 -0.021202078 -0.009036185 -0.007835585 -0.058433086 -0.049895465
-0.00029698326 -0.056744505 -0.0207471 0.07390688 -0.041838486 -0.071078986 -0.004366887 -0.05044643
0.007868094 0.004713925 0.031517886 -0.028273659 0.0011677945 -0.008369623 -0.024272911 -0.036929898
-0.037664928 -0.043002583 -0.045449387 -0.020462802 -0.013815249 0.014465556 0.00936321 -0.016821751
-0.035709497 0.014981476 0.04415641 -0.03884834 -0.07183662 0.0016414669 -0.04692582 -0.072613195
-0.035498206 -0.027259663 -0.04710375 -0.0648807 -0.04751888 -0.039119277 -0.027314572 -0.02682313
-0.058373634 -0.0037965768 -0.044529587 -0.0024470226 0.004183977 -0.009901113 -0.0055829366 -0.016428245
-0.046765786 0.026678553 -0.041734606 -0.024726484 -0.00018095941 -0.049825907 -0.029177766 -0.079684995
0.004278009 -0.054423682 -0.056130238 -0.058853146 -0.0023969405 -0.07053856 0.012604906 -0.021208312
-0.039882667 -0.044184763 -0.048868343 -0.052914824 0.012636649 -0.008207544 -0.0734058 -0.031303123
-0.06390049 -0.060043246 -0.013988156 0.013830352 -0.088191666 -0.016138509 -0.03349456 0.01973039
-0.08108508 -0.060006768 -0.007030195 -0.038467206 -0.034790497 -0.09734745 -0.035356957 0.0375479
-0.0003753036 -0.009564685 -0.04926424 0.0043639187 0.0052627237 -0.03274388 -0.06940202 -0.0634474
-0.032008525 -0.057843953 -0.06120982 0.0009987084 0.012282941 0.011631034 -0.048530806 -0.02840323
0.014491258 -0.06484345 -0.04579291 -0.010382357 0.000741111 -0.032076277 0.022043182 -0.012443384
-0.008855047 -0.10156082 -0.04831088 -0.024992846 -0.058740303 0.040208522 -0.02485977 -0.066713035
-0.02309352 0.01207653 -0.03858364 -0.022636477 -0.050287403 0.015092408 -0.02912625 -0.039074793
-0.064082816 -0.033534475 0.01100704 -0.07247766 0.094024725 0.015697269 0.03162663 -0.043547854
-0.018404098 -0.04509263

h1.weight f4 [100, 250]
00000000: b098 02be 69d8 833d cdff 47be 906e fa3d
00000010: f0d8 10b9 ebc2 54bb 4b9e 8cbd 4938 ec3d
00000020: 3160 7bbd 2393 083e 6fe6 ef3c 80c3 26be
00000030: 0f5c 34bd ce0c 71bd e367 85bd 85aa 86bd
00000040: b97d 513c fc1a fe3d db06 d4bd 57dc 46bd
00000050: 7ae6 bd3c cd18 9dbd 08d3 8ebb 6dd6 0a3a
00000060: 1148 f9bd fb34 823d da52 0fbe c7ed 803d
00000070: 5392 c7bc a9da c1bc 2386 a9bd 6dc6 96bd
00000080: 9f92 a93d c700 c3bc a63f 0e3d 7f31 453d
00000090: 7af6 16be 0bb6 d73c a9e1 ddbd 3dfe b0bd
000000a0: 3a57 793d 6dee 183e 3007 283d 1ff3 db3d
000000b0: f312 55bd 89eb fdbd ed65 033d 7b2b 933d
000000c0: a33b 17be a892 983d 61db 0fbe ce85 f739
000000d0: 31fc 83bd edc6 e3bc 780a 8cbd 55c6 83bd
000000e0: 1d94 8fbd db8a d43d 31cb e23c a452 74bd
000000f0: 5a34 d8ba 45e4 b5bd dba6 82bd b5dc 033e
00000100: 4dc0 143d e015 d9bc 5908 2dbe d26f b2bd
00000110: d294 843d 693c 92bc 4845 35bd 1d3c 943d
00000120: 902a 863d b9ca 803c d390 8ebd e55b c73a
00000130: 0f15 a9bd 8e9d a63d 65d4 263d 6ffc 87bd
00000140: d6e7 eb3b 3ca6 f83d 33c4 1ebe cfbe 6a3c
00000150: b75d b7bd 2a22 bb3c b317 26bd 987b d6bc
00000160: 5042 473d b0f9 103d e66a 883d 692d b53d
00000170: 6bd3 bd3c 329c afbd e708 843d 0f99 b7bc
00000180: 7662 e03c 021c 813d 7318 0cbe c043 63bc
00000190: 1689 fbbc f0fd a73d b505 3e3d c705 bab9
000001a0: f65e 6e3d 6626 433e 35d4 e2bd 6613 573e
000001b0: 6609 193d daf4 f5bd 26ef b83c 00b5 dabc
000001c0: 6d97 53bd a4cb 1fbe 914e a9bc 4058 e53d
000001d0: e544 5cbd 361f 5dbd 06b3 273d 924d 9c3d
000001e0: 9aa8 e4bc 54c5 983d 55b8 b43d 23e4 07be
000001f0: 9e5e 2c3d dad2 c73b 8619 edbb 8e8a e43b
00000200: 39be 0c3e d2e6 24bd 94ce e5bc ce90 3abe
00000210: df89 18be 9a0f 193c fa49 62bc 39b8 343d
00000220: c8ea b8bc c358 803d 640a c6bb 1fee d7bd
00000230: 4b83 e9bc 1b83 f1bc f526 73bd 68e4 5fbd
00000240: acd9 ef3c ec03 883d 50dc 98bc b72d 1bbe
00000250: 0c9c 60be 0cc4 a63d cd77 36be cdb9 afbc
00000260: 6de3 71be 250f 2bbe f622 e8bd 0c22 aa3d
00000270: fe16 cf39 5c1a aabd c959 b4bd ed05 70bd
00000280: 0282 14bd e0dc 923d a338 45bd bf03 0e3e
00000290: 0947 b23c cef7 4c3e adc8 91bd 6c6f a0bc
000002a0: b48a 94be 5c87 423d e748 e53c d1a6 053d
000002b0: f779 c0bc b4d6 89be 59aa 8e3d def8 69be
000002c0: c2b4 b13d 0dce 09be d814 cebc 1a80 353e
000002d0: c154 123d 5674 52bd 8069 0cbd 37da 823d
000002e0: 0b67 e53d 21ac c8bb 0e4b 513e 34b7 45be
000002f0: 1454 13bc d7f5 da3c e80f 493d 60f9 93be
00000300: e8db 2f3e e6f3 7b3d 2eff 003e 75d6 28be
00000310: 7d3f c9bd 62bd 0b3d 6906 2a3e a2c7 f9bb
00000320: 6d58 a5bd 754e 9d3d afa9 9fbd 6dab b5bd
00000330: 63c6 a7bb 4c84 2a3d 8961 4d3d cb9a 59bc
00000340: ee7b 9f3d 5fdd fcbc 4a0c 9bbd 1c83 b93b
00000350: 8d98 1bbe 49f7 093d 536b d93c c34a 48be
00000360: 828f 143b 6f7d fdbc c204 6abd 26f8 1bbe
00000370: 2580 46bd 222f 21bd 8794 a23c 0eec 873d
00000380: 51a9 85bd 1a83 163e 8020 52bd 025c 133c
00000390: cf45 bebd 7546 10bd 611c 09bc 1929 68be
000003a0: dfc2 61bd cc8f d1bd a161 c3bd e5cc a03d
000003b0: 5d26 14be 0535 53bc 3d85 4d3c 51f0 20be
000003c0: a8e9 bf3b a60f 983d b425 91bd 2d80 983d
000003d0: 9ed6 2f3c ed92 aabe 1b09 1ebe a5e8 1e3d
000003e0: 040e 993c de74 e73d 1ed5 973d f89a 983c
000003f0: f6c2 e1bc 58cd 1bbd 813f 83bd d779 bdbb
-0.12753558 0.06437761 -0.19531174 0.122281194 -0.00013813726 -0.0032464813 -0.068661295 0.11534173
-0.061371032 0.13337378 0.029284684 -0.16285515 -0.044033106 -0.058850102 -0.065139554 -0.06575493
0.012786322 0.124074906 -0.1035287 -0.048549976 0.023181189 -0.07670746 -0.004358653 0.0005296234
-0.12171949 0.063577615 -0.13996449 0.062953524 -0.024361765 -0.023663836 -0.08277538 -0.073620655
0.08279919 -0.023804082 0.03472867 0.048142906 -0.14742461 0.026331922 -0.10834057 -0.08642242
0.0608742 0.14934702 0.04102248 0.10739731 -0.052020025 -0.123984404 0.032079626 0.071860276
-0.14768843 0.074498475 -0.1404853 0.00047211203 -0.06444586 -0.027804816 -0.06837934 -0.06434313
-0.07010672 0.10378047 0.02768478 -0.059649125 -0.0016495094 -0.088814296 -0.063794814 0.12877162
0.036316205 -0.026499689 -0.16897716 -0.08712734 0.06473698 -0.017851071 -0.044255525 0.07238028
0.06551087 0.015721666 -0.06961217 0.0015209882 -0.0825597 0.0813552 0.0407299 -0.06639945
0.007199268 0.12141082 -0.15504532 0.014327719 -0.089534216 0.02284344 -0.040549945 -0.026181981
0.048647225 0.03539437 0.06661014 0.08846552 0.023172101 -0.08574714 0.064470105 -0.022411851
0.0273907 0.0630417 -0.13681202 -0.013871133 -0.030705016 0.082027316 0.04639216 -0.0003548099
0.05819603 0.19057617 -0.110756315 0.21003494 0.03736248 -0.12009592 0.022574972 -0.026697636
-0.051658083 -0.15605026 -0.020667346 0.11198473 -0.05377664 -0.053984843 0.040942214 0.07631983
-0.027912427 0.07459512 0.08824221 -0.13270621 0.04208242 0.0060981335 -0.0072357086 0.006974525
0.13744439 -0.04025919 -0.028052606 -0.18219301 -0.14896344 0.009342099 -0.013811583 0.044121
-0.02257289 0.0626693 -0.006043719 -0.10543465 -0.028504988 -0.029481461 -0.059363324 -0.054661185
0.029278599 0.06641373 -0.01865974 -0.15154158 -0.21934527 0.08142862 -0.17819138 -0.021450901
-0.23621912 -0.16704996 -0.11334793 0.08307275 0.00039499247 -0.08305809 -0.08806188 -0.0585994
-0.036256798 0.07171035 -0.048149716 0.13868617 0.021762388 0.20016405 -0.07118354 -0.01958438
-0.29012072 0.04749237 0.027988864 0.03262979 -0.023495657 -0.26921618 0.06966085 -0.22848842
0.08677055 -0.13457508 -0.025156423 0.17724648 0.03572536 -0.051380478 -0.0342803 0.063892774
0.112012945 -0.006124035 0.20438787 -0.19308168 -0.008992214 0.026728554 0.049087435 -0.28901196
0.17173731 0.061511897 0.12597343 -0.16488059 -0.098265626 0.034116156 0.16604008 -0.007622675
-0.080735065 0.0768098 -0.077960365 -0.088705875 -0.005120085 0.041630074 0.050141845 -0.013281534
0.077873096 -0.030867277 -0.07570703 0.0056613814 -0.15194912 0.033683095 0.026540434 -0.1955977
0.0022668545 -0.0309436 -0.057133444 -0.1523138 -0.048462052 -0.03935159 0.019846214 0.06636821
-0.06526435 0.14698449 -0.051300526 0.008994104 -0.09290659 -0.035223443 -0.008368582 -0.22671928
-0.055117484 -0.10232505 -0.095401056 0.078515805 -0.1446776 -0.012891059 0.0125439735 -0.15716673
0.0058567114 0.0742486 -0.070872694 0.074463226 0.010732321 -0.3331522 -0.15433161 0.038796086
0.018683441 0.113015875 0.07413696 0.018628582 -0.027558785 -0.038037628 -0.06408597 -0.0057823467

h1.bias f4 [100]
00000000: 477b 423e 1078 c93b 8aba 12be 1f25 14be
00000010: b431 8cba f612 9dbd 12ee 84bd 214b f73d
00000020: ca0e e1bd 6893 01bd df32 6d3c a3c2 5cbe
00000030: 4ebe 503e 08ab adbd 7787 863d a3cf f4bc
00000040: 297a 0ebe 0e27 153e 1bde c8bd a052 62bd
00000050: 5ed4 353d a873 17bd 6ee6 653d 0ab3 e93d
00000060: 1b4f 8d3e d346 323e 6aa8 863d f5e0 613e
00000070: a8df 3f3d f306 dbbd 5fc9 07bd aed5 3bbc
00000080: 84f1 1c3e c366 88bd c8f5 ef3d 24d4 313d
00000090: 7a94 41bc e1d2 02be efae 3a3d cd37 e23c
000000a0: 83c0 453e a31a 05bd 1050 29bb 33cd 403d
000000b0: 34d2 563d b1b2 8bbd 86c3 2cbd 594a 083e
000000c0: 79ca b0bc 42a5 3b3e e0a6 d93c 747e 02be
000000d0: 51ad adbc 0b1d d3bd e514 5fbd 96ed 113d
000000e0: db41 ddbd 3d1d 0e3e 59a2 49bd 7673 5fbe
000000f0: d79d f1b9 08b4 21bd fd2f 263e 92ed 653e
00000100: ce0d 413c 6d02 1b3e 4303 063e c5e7 ee3d
00000110: e841 003e 839d 9fbd 5785 073e 65db ed3d
00000120: 1941 453e 7420 783d e9af e53d 6f1d 343d
00000130: 2e01 79bd 7092 1b3c 555a 9ebd ff35 17be
00000140: 078e 143e 7207 f9bc 152c 09be 7dbe cdbd
00000150: 563b abbc 8ac4 0ebe 8eb2 a7bd d53e b8bc
00000160: fa5a 16bc de80 09be ee92 b2bc 8166 40be
00000170: e915 00be 4e41 2a3e 520b 6abc 7fdb 583c
00000180: 2862 c23d 497f 80bd aff4 d43d b2ce 073d
0.18992339 0.006148346 -0.14328972 -0.14467286 -0.0010695965 -0.07669632 -0.06490721 0.120748766
-0.10989149 -0.03163472 0.014477461 -0.21558623 0.20385095 -0.08479887 0.065688066 -0.029884165
-0.13913788 0.1456568 -0.09807988 -0.05525458 0.044391982 -0.036975533 0.056127958 0.11411102
0.27599415 0.1740983 0.06575091 0.2205847 0.046844155 -0.10694685 -0.033151027 -0.011464519
0.15326506 -0.06660225 0.11716801 0.043415204 -0.011815185 -0.12775756 0.045576986 0.027614499
0.19311719 -0.032496106 -0.0025835074 0.047070693 0.05244656 -0.06821192 -0.042178653 0.13309611
-0.021580921 0.1832476 0.02656883 -0.1274355 -0.021200808 -0.10308274 -0.054463286 0.03562697
-0.108035766 0.13878341 -0.049227092 -0.21821389 -0.00046084702 -0.03947833 0.16229244 0.22453907
0.011783076 0.15137644 0.13087182 0.116653 0.12525141 -0.07793715 0.13234459 0.11614112
0.19263114 0.060577825 0.11215193 0.043973383 -0.06079214 0.009495363 -0.07732073 -0.14766692
0.14507304 -0.030399058 -0.13395722 -0.100460984 -0.020902317 -0.13942161 -0.081883535 -0.022490898
-0.009176964 -0.13428065 -0.021798577 -0.18789102 -0.12508358 0.16626474 -0.014284926 0.013235926
0.09491378 -0.06274278 0.10398232 0.033156104

output_layer.weight f4 [10, 100]
00000000: ab56 8d3b 2be9 093e e2e6 c63d 6641 81bc
00000010: 119e 743d b79c af3d 9804 0d3e 6914 b6be
00000020: 5265 55be 1890 b23c fa9d f23d 9eb5 90be
00000030: 794c 4d3e 4382 823d 4d22 1a3d dd5d e93c
00000040: 2083 003e 58ed 25be 2b34 37be e1f0 cb3c
00000050: 65bb ea3c 4605 e7bd 2990 3fbe a379 093e
00000060: 0187 5b3d ee97 b53c 4b26 983d 1b4b 9ebd
00000070: 918c 5dbe b989 e3bd 5a56 80bd b45c adbc
00000080: cd49 403d 9ca9 bebd 2db9 d63d 6274 123d
00000090: 4841 cb3d d0fa 4fbc c6f0 9b3b 6be9 14be
000000a0: 0d0c c4bd bd45 0fbb c2df ec3c fd7a 41be
000000b0: a8a6 aabd d688 a23b 3bc5 a93d 9d9b f93d
000000c0: 70c7 843d 3af5 a33d 4014 5fbd cfae 463d
000000d0: db42 9dbd fd3b 7e3d 76a5 89be 9580 d73c
000000e0: ecef f93c 3b42 193e 5390 6d3a 1b9e 80be
000000f0: eebb 1c3d a1a4 6ebe 924b eebc e83c 44bd
00000100: eecd 9cbd e8f0 e3bd 8e21 37be b0b1 85be
00000110: 5521 82be 9bb9 56bc 8ec3 56be c2cc 743d
00000120: 617c ec3d 2f1e 21be 8a50 20bd e511 babe
00000130: b800 333d e96b db3d 6082 7abd 55b2 253c
00000140: a6ca 093e fc0a 2a3d a7e5 043e 30be 0ebd
00000150: 52d6 5ebe ed9d 7abc 8e84 ffbc ca54 623d
00000160: 6e0f c83c 7431 f33c 2b23 30bd 46e7 143d
00000170: 7044 7c3d cff7 13be f3fc 17be 63a8 193b
00000180: c846 fabd 01ab 2b3e 32b9 f33d 502e 513d
00000190: 6ae3 e63b 17e7 c5bd 573e 2d3e 0673 19bd
000001a0: 5ca4 03be bffc df3d 38a3 083e c22f 693c
000001b0: 68e6 0a3e 927e 343e c838 b8be cd75 413e
000001c0: 8159 b5bd 3e99 5f3d ee45 39be c7cd a33d
000001d0: cd79 79be e0a8 d0bc d02b 5abe 8e8a 7ebe
000001e0: 1547 36be 3a5d 2f3d bc66 f6bd 399c 2f3e
000001f0: cfe0 5dbe 6a94 3bbe abeb 763d 0c89 e4bd
00000200: 55ea c93d 39c1 133e 3f1d babc 8f71 58bd
00000210: c7a0 08be c601 da3d c8f3 d33d cc46 9bbe
00000220: 828f f93d 42b3 083e 395e 40be c134 5cbd
00000230: 75ee 76be 0e20 033d 768c d9bc e8c9 cb3d
00000240: 8e43 31ba 8458 0fbd 9bc6 77bd d04e b9bc
00000250: 153e 82be 5403 64bd cd85 84bd da4f f33c
00000260: 2b8e 97bd 0900 cabd 9489 cc3d 0368 3bbd
00000270: c98c b3bd 51e2 8ebd a36e 9ebd f250 b73d
00000280: 07ec 9bbd f7bf e73d 27b5 55be d363 313d
00000290: 881b e8bb 150a 8abd ab9d ccbd a89e 9fbd
000002a0: 508e 14bc 39de 3ebd cdbd 813d 2e37 38be
000002b0: 3c55 02be 2b16 9dbe a7ce 183d b30c c2bc
000002c0: ab75 963d cb4c d3bd 43e1 2f3e 0672 5dbd
000002d0: ae47 4dbe 0369 2bbe 8b28 523e b9d6 973d
000002e0: 206a 39be bfe1 523d 8472 6c3d ec02 b13b
000002f0: e1b1 35bb b29a 233e 0528 d93d c5a3 b13d
00000300: bddb 5e3b 9c71 abbd ef24 aa3d 7f4a b1be
00000310: ca82 b03d 4d5b 443e 2abb 783b fca2 d1bd
00000320: 016d ef3d 3921 80bd 6c56 623c 0cf5 1ebd
00000330: 840d 27bc 20e4 8dbd 0cf1 403d 79bb 3dbe
00000340: 8658 4bbe d384 003d a8cc 493d 0ed2 d7bd
00000350: 49af f1ba 0ae8 423e 339c 093d 5545 d33d
00000360: e236 7c3d c064 ad3d aced 6bbe d31b 243d
00000370: a492 173d ad95 d83c d369 bb3d 82e1 75be
00000380: f3c7 97bb 4af4 b03c 244b 203d c362 df3c
00000390: 39a0 afbd c0ed 4ebd a255 e339 0cc9 923c
000003a0: 8e6f 07be 94fd eb3c 5f34 3abe 72b0 0bbe
000003b0: 2f1a 08be 77ce db3d 9e10 773c 4b4c e9bd
000003c0: 4eeb 903d d489 293d 899a 833d 2ffc b23d
000003d0: 2cc2 c2bd 584a 09be a1be c4bd ac1d da3d
000003e0: 9403 8b3d 4ec4 c2bc 5bed c1bd 8153 0f3e
000003f0: 8b5f 1e3d c0b6 1b3e 2e99 cb3d ccc1 90bd
0.00431331 0.13467853 0.09712006 -0.015778255 0.059721056 0.08574813 0.13771284 -0.35562447
-0.20839432 0.021797225 0.11846538 -0.28263563 0.20048703 0.06372502 0.037630368 0.02848714
0.1255002 -0.1620382 -0.17890994 0.024895133 0.02865381 -0.11280303 -0.18707336 0.13425307
0.053595547 0.022167172 0.07429179 -0.07729169 -0.21635653 -0.11110253 -0.0626647 -0.021162368
0.046945382 -0.09309694 0.10484538 0.035755523 0.09924561 -0.012694076 0.004758927 -0.14542167
-0.09572611 -0.0021861636 0.02891529 -0.18894573 -0.083325684 0.00496016 0.08289572 0.12187884
0.06483352 0.08005758 -0.05446267 0.048506554 -0.07678767 0.062068928 -0.2688405 0.02630643
0.030509911 0.14966671 0.00090623385 -0.25120625 0.03826516 -0.23304988 -0.02908877 -0.047909647
-0.076564655 -0.111299336 -0.17883894 -0.26112127 -0.25416055 -0.013105775 -0.20973036 0.059765585
0.11547161 -0.1573417 -0.039139308 -0.36341777 0.043701857 0.107139416 -0.06115949 0.010113318
0.1345621 0.04151438 0.1297823 -0.034849346 -0.21761444 -0.0152964415 -0.031191137 0.055256642
0.02442142 0.029686667 -0.04300229 0.036353372 0.061588705 -0.1445 -0.14842586 0.0023446314
-0.12220532 0.16764452 0.119005576 0.051069558 0.007046153 -0.096632175 0.16918312 -0.03746321
-0.12855667 0.10936879 0.13343513 0.014232578 0.13564456 0.17626408 -0.3598082 0.18892594
-0.08854962 0.054589503 -0.18093082 0.07998233 -0.2436287 -0.02547115 -0.21305776 -0.24857542
-0.17800553 0.042813517 -0.12031314 0.17149438 -0.21667789 -0.18318334 0.060283344 -0.11158952
0.098591484 0.14429177 -0.022719024 -0.052842673 -0.13342582 0.106448695 0.10349232 -0.3032745
0.12185575 0.13349631 -0.18785943 -0.053761248 -0.24114402 0.03201299 -0.026556235 0.0995062
-0.00067620806 -0.034996524 -0.06049214 -0.022620589 -0.2543799 -0.055667236 -0.06470833 0.029701162
-0.07400163 -0.09863288 0.099871784 -0.04575349 -0.08767087 -0.0697676 -0.07735946 0.08950986
-0.07613378 0.11315911 -0.20869885 0.04330809 -0.00708336 -0.06740204 -0.0999101 -0.07793933
-0.009067133 -0.046598647 0.0633503 -0.179898 -0.12727827 -0.30680975 0.037306454 -0.023687696
0.07346662 -0.103173815 0.17175774 -0.05406382 -0.20046875 -0.16739278 0.20523278 0.07414002
-0.1810689 0.05148482 0.057726398 0.0054019596 -0.0027724432 0.1597698 0.10603336 0.08673815
0.0034005486 -0.08371279 0.08307826 -0.34627149 0.08618696 0.19175453 0.0037953355 -0.10236165
0.11690713 -0.06256337 0.01381455 -0.038807914 -0.0101960935 -0.06928277 0.04710488 -0.18528546
-0.19857988 0.03137667 0.04926744 -0.105381116 -0.001843908 0.19033828 0.03359623 0.103159584
0.061575778 0.08466482 -0.23039883 0.040065598 0.03700508 0.026438558 0.09151044 -0.24011806
-0.00463199 0.021600861 0.03913416 0.027268773 -0.08575482 -0.050519705 0.00043360615 0.017918132
-0.13226148 0.028807439 -0.1818404 -0.13641527 -0.13291238 0.107327394 0.015079645 -0.11391505
0.07076131 0.04139121 0.064259596 0.087395065 -0.095096916 -0.13407266 -0.09606672 0.10650191
0.06787792 -0.023775246 -0.094691 0.13996698 0.038665336 0.15206432 0.09941326 -0.07068214

output_layer.bias f4 [10]
00000000: 4440 513d 232b 42be bdc7 84bd f803 a33d
00000010: 2eba 193d dbd8 34bd b25b 363d 16e7 22be
00000020: 1309 753e 901a a1bb
0.05108668 -0.18961768 -0.064834096 0.07959741 0.03753107 -0.044152122 0.04452104 -0.15908465
0.23929243 -0.0049164966
